<?xml version="1.0" ?>
<net name="torch-jit-export" version="11">
	<layers>
		<layer id="0" name="input" type="Parameter" version="opset1">
			<data shape="?,3,192,192" element_type="f32"/>
			<rt_info>
				<attribute name="fused_names" version="0" value="input"/>
			</rt_info>
			<output>
				<port id="0" precision="FP32" names="input">
					<dim>-1</dim>
					<dim>3</dim>
					<dim>192</dim>
					<dim>192</dim>
				</port>
			</output>
		</layer>
		<layer id="1" name="backbone1.0.weight" type="Const" version="opset1">
			<data element_type="f32" shape="16, 3, 3, 3" offset="0" size="1728"/>
			<rt_info>
				<attribute name="fused_names" version="0" value="backbone1.0.weight"/>
			</rt_info>
			<output>
				<port id="0" precision="FP32" names="backbone1.0.weight">
					<dim>16</dim>
					<dim>3</dim>
					<dim>3</dim>
					<dim>3</dim>
				</port>
			</output>
		</layer>
		<layer id="2" name="Convolution_235" type="Convolution" version="opset1">
			<data strides="2, 2" dilations="1, 1" pads_begin="0, 0" pads_end="1, 1" auto_pad="explicit"/>
			<rt_info>
				<attribute name="fused_names" version="0" value="137, Convolution_235, Split_167"/>
			</rt_info>
			<input>
				<port id="0" precision="FP32">
					<dim>-1</dim>
					<dim>3</dim>
					<dim>192</dim>
					<dim>192</dim>
				</port>
				<port id="1" precision="FP32">
					<dim>16</dim>
					<dim>3</dim>
					<dim>3</dim>
					<dim>3</dim>
				</port>
			</input>
			<output>
				<port id="2" precision="FP32">
					<dim>-1</dim>
					<dim>16</dim>
					<dim>96</dim>
					<dim>96</dim>
				</port>
			</output>
		</layer>
		<layer id="3" name="Reshape_255" type="Const" version="opset1">
			<data element_type="f32" shape="1, 16, 1, 1" offset="1728" size="64"/>
			<output>
				<port id="0" precision="FP32">
					<dim>1</dim>
					<dim>16</dim>
					<dim>1</dim>
					<dim>1</dim>
				</port>
			</output>
		</layer>
		<layer id="4" name="138" type="Add" version="opset1">
			<data auto_broadcast="numpy"/>
			<rt_info>
				<attribute name="fused_names" version="0" value="138, Concat_254, Reshape_255"/>
			</rt_info>
			<input>
				<port id="0" precision="FP32">
					<dim>-1</dim>
					<dim>16</dim>
					<dim>96</dim>
					<dim>96</dim>
				</port>
				<port id="1" precision="FP32">
					<dim>1</dim>
					<dim>16</dim>
					<dim>1</dim>
					<dim>1</dim>
				</port>
			</input>
			<output>
				<port id="2" precision="FP32" names="138">
					<dim>-1</dim>
					<dim>16</dim>
					<dim>96</dim>
					<dim>96</dim>
				</port>
			</output>
		</layer>
		<layer id="5" name="483" type="Const" version="opset1">
			<data element_type="f32" shape="16, 1, 1" offset="1792" size="64"/>
			<rt_info>
				<attribute name="fused_names" version="0" value="483"/>
			</rt_info>
			<output>
				<port id="0" precision="FP32" names="483">
					<dim>16</dim>
					<dim>1</dim>
					<dim>1</dim>
				</port>
			</output>
		</layer>
		<layer id="6" name="140" type="PReLU" version="opset1">
			<rt_info>
				<attribute name="fused_names" version="0" value="140"/>
			</rt_info>
			<input>
				<port id="0" precision="FP32">
					<dim>-1</dim>
					<dim>16</dim>
					<dim>96</dim>
					<dim>96</dim>
				</port>
				<port id="1" precision="FP32">
					<dim>16</dim>
					<dim>1</dim>
					<dim>1</dim>
				</port>
			</input>
			<output>
				<port id="2" precision="FP32" names="140">
					<dim>-1</dim>
					<dim>16</dim>
					<dim>96</dim>
					<dim>96</dim>
				</port>
			</output>
		</layer>
		<layer id="7" name="Reshape_291" type="Const" version="opset1">
			<data element_type="f32" shape="16, 1, 1, 3, 3" offset="1856" size="576"/>
			<output>
				<port id="0" precision="FP32">
					<dim>16</dim>
					<dim>1</dim>
					<dim>1</dim>
					<dim>3</dim>
					<dim>3</dim>
				</port>
			</output>
		</layer>
		<layer id="8" name="GroupConvolution_357" type="GroupConvolution" version="opset1">
			<data strides="1, 1" pads_begin="1, 1" pads_end="1, 1" dilations="1, 1" auto_pad="explicit"/>
			<rt_info>
				<attribute name="fused_names" version="0" value="141, Concat_376, GroupConvolution_357, Reshape_291, Reshape_377"/>
			</rt_info>
			<input>
				<port id="0" precision="FP32">
					<dim>-1</dim>
					<dim>16</dim>
					<dim>96</dim>
					<dim>96</dim>
				</port>
				<port id="1" precision="FP32">
					<dim>16</dim>
					<dim>1</dim>
					<dim>1</dim>
					<dim>3</dim>
					<dim>3</dim>
				</port>
			</input>
			<output>
				<port id="2" precision="FP32" names="141">
					<dim>-1</dim>
					<dim>16</dim>
					<dim>96</dim>
					<dim>96</dim>
				</port>
			</output>
		</layer>
		<layer id="9" name="backbone1.2.convs.1.weight" type="Const" version="opset1">
			<data element_type="f32" shape="16, 16, 1, 1" offset="2432" size="1024"/>
			<rt_info>
				<attribute name="fused_names" version="0" value="backbone1.2.convs.1.weight"/>
			</rt_info>
			<output>
				<port id="0" precision="FP32" names="backbone1.2.convs.1.weight">
					<dim>16</dim>
					<dim>16</dim>
					<dim>1</dim>
					<dim>1</dim>
				</port>
			</output>
		</layer>
		<layer id="10" name="Convolution_405" type="Convolution" version="opset1">
			<data strides="1, 1" dilations="1, 1" pads_begin="0, 0" pads_end="0, 0" auto_pad="explicit"/>
			<rt_info>
				<attribute name="fused_names" version="0" value="Convolution_405"/>
			</rt_info>
			<input>
				<port id="0" precision="FP32">
					<dim>-1</dim>
					<dim>16</dim>
					<dim>96</dim>
					<dim>96</dim>
				</port>
				<port id="1" precision="FP32">
					<dim>16</dim>
					<dim>16</dim>
					<dim>1</dim>
					<dim>1</dim>
				</port>
			</input>
			<output>
				<port id="2" precision="FP32">
					<dim>-1</dim>
					<dim>16</dim>
					<dim>96</dim>
					<dim>96</dim>
				</port>
			</output>
		</layer>
		<layer id="11" name="Reshape_425" type="Const" version="opset1">
			<data element_type="f32" shape="1, 16, 1, 1" offset="3456" size="64"/>
			<output>
				<port id="0" precision="FP32">
					<dim>1</dim>
					<dim>16</dim>
					<dim>1</dim>
					<dim>1</dim>
				</port>
			</output>
		</layer>
		<layer id="12" name="142" type="Add" version="opset1">
			<data auto_broadcast="numpy"/>
			<rt_info>
				<attribute name="fused_names" version="0" value="142, Concat_424, Reshape_425"/>
			</rt_info>
			<input>
				<port id="0" precision="FP32">
					<dim>-1</dim>
					<dim>16</dim>
					<dim>96</dim>
					<dim>96</dim>
				</port>
				<port id="1" precision="FP32">
					<dim>1</dim>
					<dim>16</dim>
					<dim>1</dim>
					<dim>1</dim>
				</port>
			</input>
			<output>
				<port id="2" precision="FP32" names="142">
					<dim>-1</dim>
					<dim>16</dim>
					<dim>96</dim>
					<dim>96</dim>
				</port>
			</output>
		</layer>
		<layer id="13" name="143" type="Add" version="opset1">
			<data auto_broadcast="numpy"/>
			<rt_info>
				<attribute name="fused_names" version="0" value="143"/>
			</rt_info>
			<input>
				<port id="0" precision="FP32">
					<dim>-1</dim>
					<dim>16</dim>
					<dim>96</dim>
					<dim>96</dim>
				</port>
				<port id="1" precision="FP32">
					<dim>-1</dim>
					<dim>16</dim>
					<dim>96</dim>
					<dim>96</dim>
				</port>
			</input>
			<output>
				<port id="2" precision="FP32" names="143">
					<dim>-1</dim>
					<dim>16</dim>
					<dim>96</dim>
					<dim>96</dim>
				</port>
			</output>
		</layer>
		<layer id="14" name="484" type="Const" version="opset1">
			<data element_type="f32" shape="16, 1, 1" offset="3520" size="64"/>
			<rt_info>
				<attribute name="fused_names" version="0" value="484"/>
			</rt_info>
			<output>
				<port id="0" precision="FP32" names="484">
					<dim>16</dim>
					<dim>1</dim>
					<dim>1</dim>
				</port>
			</output>
		</layer>
		<layer id="15" name="145" type="PReLU" version="opset1">
			<rt_info>
				<attribute name="fused_names" version="0" value="145"/>
			</rt_info>
			<input>
				<port id="0" precision="FP32">
					<dim>-1</dim>
					<dim>16</dim>
					<dim>96</dim>
					<dim>96</dim>
				</port>
				<port id="1" precision="FP32">
					<dim>16</dim>
					<dim>1</dim>
					<dim>1</dim>
				</port>
			</input>
			<output>
				<port id="2" precision="FP32" names="145">
					<dim>-1</dim>
					<dim>16</dim>
					<dim>96</dim>
					<dim>96</dim>
				</port>
			</output>
		</layer>
		<layer id="16" name="Reshape_462" type="Const" version="opset1">
			<data element_type="f32" shape="16, 1, 1, 3, 3" offset="3584" size="576"/>
			<output>
				<port id="0" precision="FP32">
					<dim>16</dim>
					<dim>1</dim>
					<dim>1</dim>
					<dim>3</dim>
					<dim>3</dim>
				</port>
			</output>
		</layer>
		<layer id="17" name="GroupConvolution_528" type="GroupConvolution" version="opset1">
			<data strides="1, 1" pads_begin="1, 1" pads_end="1, 1" dilations="1, 1" auto_pad="explicit"/>
			<rt_info>
				<attribute name="fused_names" version="0" value="146, Concat_547, GroupConvolution_528, Reshape_462, Reshape_548"/>
			</rt_info>
			<input>
				<port id="0" precision="FP32">
					<dim>-1</dim>
					<dim>16</dim>
					<dim>96</dim>
					<dim>96</dim>
				</port>
				<port id="1" precision="FP32">
					<dim>16</dim>
					<dim>1</dim>
					<dim>1</dim>
					<dim>3</dim>
					<dim>3</dim>
				</port>
			</input>
			<output>
				<port id="2" precision="FP32" names="146">
					<dim>-1</dim>
					<dim>16</dim>
					<dim>96</dim>
					<dim>96</dim>
				</port>
			</output>
		</layer>
		<layer id="18" name="backbone1.3.convs.1.weight" type="Const" version="opset1">
			<data element_type="f32" shape="16, 16, 1, 1" offset="4160" size="1024"/>
			<rt_info>
				<attribute name="fused_names" version="0" value="backbone1.3.convs.1.weight"/>
			</rt_info>
			<output>
				<port id="0" precision="FP32" names="backbone1.3.convs.1.weight">
					<dim>16</dim>
					<dim>16</dim>
					<dim>1</dim>
					<dim>1</dim>
				</port>
			</output>
		</layer>
		<layer id="19" name="Convolution_576" type="Convolution" version="opset1">
			<data strides="1, 1" dilations="1, 1" pads_begin="0, 0" pads_end="0, 0" auto_pad="explicit"/>
			<rt_info>
				<attribute name="fused_names" version="0" value="Convolution_576"/>
			</rt_info>
			<input>
				<port id="0" precision="FP32">
					<dim>-1</dim>
					<dim>16</dim>
					<dim>96</dim>
					<dim>96</dim>
				</port>
				<port id="1" precision="FP32">
					<dim>16</dim>
					<dim>16</dim>
					<dim>1</dim>
					<dim>1</dim>
				</port>
			</input>
			<output>
				<port id="2" precision="FP32">
					<dim>-1</dim>
					<dim>16</dim>
					<dim>96</dim>
					<dim>96</dim>
				</port>
			</output>
		</layer>
		<layer id="20" name="Reshape_596" type="Const" version="opset1">
			<data element_type="f32" shape="1, 16, 1, 1" offset="5184" size="64"/>
			<output>
				<port id="0" precision="FP32">
					<dim>1</dim>
					<dim>16</dim>
					<dim>1</dim>
					<dim>1</dim>
				</port>
			</output>
		</layer>
		<layer id="21" name="147" type="Add" version="opset1">
			<data auto_broadcast="numpy"/>
			<rt_info>
				<attribute name="fused_names" version="0" value="147, Concat_595, Reshape_596"/>
			</rt_info>
			<input>
				<port id="0" precision="FP32">
					<dim>-1</dim>
					<dim>16</dim>
					<dim>96</dim>
					<dim>96</dim>
				</port>
				<port id="1" precision="FP32">
					<dim>1</dim>
					<dim>16</dim>
					<dim>1</dim>
					<dim>1</dim>
				</port>
			</input>
			<output>
				<port id="2" precision="FP32" names="147">
					<dim>-1</dim>
					<dim>16</dim>
					<dim>96</dim>
					<dim>96</dim>
				</port>
			</output>
		</layer>
		<layer id="22" name="148" type="Add" version="opset1">
			<data auto_broadcast="numpy"/>
			<rt_info>
				<attribute name="fused_names" version="0" value="148"/>
			</rt_info>
			<input>
				<port id="0" precision="FP32">
					<dim>-1</dim>
					<dim>16</dim>
					<dim>96</dim>
					<dim>96</dim>
				</port>
				<port id="1" precision="FP32">
					<dim>-1</dim>
					<dim>16</dim>
					<dim>96</dim>
					<dim>96</dim>
				</port>
			</input>
			<output>
				<port id="2" precision="FP32" names="148">
					<dim>-1</dim>
					<dim>16</dim>
					<dim>96</dim>
					<dim>96</dim>
				</port>
			</output>
		</layer>
		<layer id="23" name="485" type="Const" version="opset1">
			<data element_type="f32" shape="16, 1, 1" offset="5248" size="64"/>
			<rt_info>
				<attribute name="fused_names" version="0" value="485"/>
			</rt_info>
			<output>
				<port id="0" precision="FP32" names="485">
					<dim>16</dim>
					<dim>1</dim>
					<dim>1</dim>
				</port>
			</output>
		</layer>
		<layer id="24" name="150" type="PReLU" version="opset1">
			<rt_info>
				<attribute name="fused_names" version="0" value="150"/>
			</rt_info>
			<input>
				<port id="0" precision="FP32">
					<dim>-1</dim>
					<dim>16</dim>
					<dim>96</dim>
					<dim>96</dim>
				</port>
				<port id="1" precision="FP32">
					<dim>16</dim>
					<dim>1</dim>
					<dim>1</dim>
				</port>
			</input>
			<output>
				<port id="2" precision="FP32" names="150">
					<dim>-1</dim>
					<dim>16</dim>
					<dim>96</dim>
					<dim>96</dim>
				</port>
			</output>
		</layer>
		<layer id="25" name="Reshape_836" type="Const" version="opset1">
			<data element_type="f32" shape="16, 1, 1, 3, 3" offset="5312" size="576"/>
			<output>
				<port id="0" precision="FP32">
					<dim>16</dim>
					<dim>1</dim>
					<dim>1</dim>
					<dim>3</dim>
					<dim>3</dim>
				</port>
			</output>
		</layer>
		<layer id="26" name="GroupConvolution_902" type="GroupConvolution" version="opset1">
			<data strides="2, 2" pads_begin="0, 0" pads_end="2, 2" dilations="1, 1" auto_pad="explicit"/>
			<rt_info>
				<attribute name="fused_names" version="0" value="174, 200, Concat_921, GroupConvolution_902, Reshape_836, Reshape_922, Split_659"/>
			</rt_info>
			<input>
				<port id="0" precision="FP32">
					<dim>-1</dim>
					<dim>16</dim>
					<dim>96</dim>
					<dim>96</dim>
				</port>
				<port id="1" precision="FP32">
					<dim>16</dim>
					<dim>1</dim>
					<dim>1</dim>
					<dim>3</dim>
					<dim>3</dim>
				</port>
			</input>
			<output>
				<port id="2" precision="FP32" names="200">
					<dim>-1</dim>
					<dim>16</dim>
					<dim>48</dim>
					<dim>48</dim>
				</port>
			</output>
		</layer>
		<layer id="27" name="backbone1.4.convs.1.weight" type="Const" version="opset1">
			<data element_type="f32" shape="32, 16, 1, 1" offset="5888" size="2048"/>
			<rt_info>
				<attribute name="fused_names" version="0" value="backbone1.4.convs.1.weight"/>
			</rt_info>
			<output>
				<port id="0" precision="FP32" names="backbone1.4.convs.1.weight">
					<dim>32</dim>
					<dim>16</dim>
					<dim>1</dim>
					<dim>1</dim>
				</port>
			</output>
		</layer>
		<layer id="28" name="Convolution_950" type="Convolution" version="opset1">
			<data strides="1, 1" dilations="1, 1" pads_begin="0, 0" pads_end="0, 0" auto_pad="explicit"/>
			<rt_info>
				<attribute name="fused_names" version="0" value="Convolution_950"/>
			</rt_info>
			<input>
				<port id="0" precision="FP32">
					<dim>-1</dim>
					<dim>16</dim>
					<dim>48</dim>
					<dim>48</dim>
				</port>
				<port id="1" precision="FP32">
					<dim>32</dim>
					<dim>16</dim>
					<dim>1</dim>
					<dim>1</dim>
				</port>
			</input>
			<output>
				<port id="2" precision="FP32">
					<dim>-1</dim>
					<dim>32</dim>
					<dim>48</dim>
					<dim>48</dim>
				</port>
			</output>
		</layer>
		<layer id="29" name="Reshape_970" type="Const" version="opset1">
			<data element_type="f32" shape="1, 32, 1, 1" offset="7936" size="128"/>
			<output>
				<port id="0" precision="FP32">
					<dim>1</dim>
					<dim>32</dim>
					<dim>1</dim>
					<dim>1</dim>
				</port>
			</output>
		</layer>
		<layer id="30" name="201" type="Add" version="opset1">
			<data auto_broadcast="numpy"/>
			<rt_info>
				<attribute name="fused_names" version="0" value="201, Concat_969, Reshape_970"/>
			</rt_info>
			<input>
				<port id="0" precision="FP32">
					<dim>-1</dim>
					<dim>32</dim>
					<dim>48</dim>
					<dim>48</dim>
				</port>
				<port id="1" precision="FP32">
					<dim>1</dim>
					<dim>32</dim>
					<dim>1</dim>
					<dim>1</dim>
				</port>
			</input>
			<output>
				<port id="2" precision="FP32" names="201">
					<dim>-1</dim>
					<dim>32</dim>
					<dim>48</dim>
					<dim>48</dim>
				</port>
			</output>
		</layer>
		<layer id="31" name="175" type="MaxPool" version="opset8">
			<data strides="2, 2" dilations="1, 1" pads_begin="0, 0" pads_end="0, 0" kernel="2, 2" rounding_type="floor" auto_pad="explicit" index_element_type="i64" axis="0"/>
			<rt_info>
				<attribute name="fused_names" version="0" value="175"/>
			</rt_info>
			<input>
				<port id="0" precision="FP32">
					<dim>-1</dim>
					<dim>16</dim>
					<dim>96</dim>
					<dim>96</dim>
				</port>
			</input>
			<output>
				<port id="1" precision="FP32" names="175">
					<dim>-1</dim>
					<dim>16</dim>
					<dim>48</dim>
					<dim>48</dim>
				</port>
				<port id="2" precision="I64">
					<dim>-1</dim>
					<dim>16</dim>
					<dim>48</dim>
					<dim>48</dim>
				</port>
			</output>
		</layer>
		<layer id="32" name="Split_761.0" type="Const" version="opset1">
			<data element_type="i64" shape="4" offset="8064" size="32"/>
			<output>
				<port id="0" precision="I64">
					<dim>4</dim>
				</port>
			</output>
		</layer>
		<layer id="33" name="Split_761.1" type="Const" version="opset1">
			<data element_type="i64" shape="4" offset="8096" size="32"/>
			<output>
				<port id="0" precision="I64">
					<dim>4</dim>
				</port>
			</output>
		</layer>
		<layer id="34" name="198" type="Const" version="opset1">
			<data element_type="f32" shape="" offset="8128" size="4"/>
			<rt_info>
				<attribute name="fused_names" version="0" value="198"/>
			</rt_info>
			<output>
				<port id="0" precision="FP32" names="198"/>
			</output>
		</layer>
		<layer id="35" name="199" type="Pad" version="opset1">
			<data pad_mode="constant"/>
			<rt_info>
				<attribute name="fused_names" version="0" value="199, Split_761"/>
			</rt_info>
			<input>
				<port id="0" precision="FP32">
					<dim>-1</dim>
					<dim>16</dim>
					<dim>48</dim>
					<dim>48</dim>
				</port>
				<port id="1" precision="I64">
					<dim>4</dim>
				</port>
				<port id="2" precision="I64">
					<dim>4</dim>
				</port>
				<port id="3" precision="FP32"/>
			</input>
			<output>
				<port id="4" precision="FP32" names="199">
					<dim>-1</dim>
					<dim>32</dim>
					<dim>48</dim>
					<dim>48</dim>
				</port>
			</output>
		</layer>
		<layer id="36" name="202" type="Add" version="opset1">
			<data auto_broadcast="numpy"/>
			<rt_info>
				<attribute name="fused_names" version="0" value="202"/>
			</rt_info>
			<input>
				<port id="0" precision="FP32">
					<dim>-1</dim>
					<dim>32</dim>
					<dim>48</dim>
					<dim>48</dim>
				</port>
				<port id="1" precision="FP32">
					<dim>-1</dim>
					<dim>32</dim>
					<dim>48</dim>
					<dim>48</dim>
				</port>
			</input>
			<output>
				<port id="2" precision="FP32" names="202">
					<dim>-1</dim>
					<dim>32</dim>
					<dim>48</dim>
					<dim>48</dim>
				</port>
			</output>
		</layer>
		<layer id="37" name="496" type="Const" version="opset1">
			<data element_type="f32" shape="32, 1, 1" offset="8132" size="128"/>
			<rt_info>
				<attribute name="fused_names" version="0" value="496"/>
			</rt_info>
			<output>
				<port id="0" precision="FP32" names="496">
					<dim>32</dim>
					<dim>1</dim>
					<dim>1</dim>
				</port>
			</output>
		</layer>
		<layer id="38" name="204" type="PReLU" version="opset1">
			<rt_info>
				<attribute name="fused_names" version="0" value="204"/>
			</rt_info>
			<input>
				<port id="0" precision="FP32">
					<dim>-1</dim>
					<dim>32</dim>
					<dim>48</dim>
					<dim>48</dim>
				</port>
				<port id="1" precision="FP32">
					<dim>32</dim>
					<dim>1</dim>
					<dim>1</dim>
				</port>
			</input>
			<output>
				<port id="2" precision="FP32" names="204">
					<dim>-1</dim>
					<dim>32</dim>
					<dim>48</dim>
					<dim>48</dim>
				</port>
			</output>
		</layer>
		<layer id="39" name="Reshape_1007" type="Const" version="opset1">
			<data element_type="f32" shape="32, 1, 1, 3, 3" offset="8260" size="1152"/>
			<output>
				<port id="0" precision="FP32">
					<dim>32</dim>
					<dim>1</dim>
					<dim>1</dim>
					<dim>3</dim>
					<dim>3</dim>
				</port>
			</output>
		</layer>
		<layer id="40" name="GroupConvolution_1073" type="GroupConvolution" version="opset1">
			<data strides="1, 1" pads_begin="1, 1" pads_end="1, 1" dilations="1, 1" auto_pad="explicit"/>
			<rt_info>
				<attribute name="fused_names" version="0" value="205, Concat_1092, GroupConvolution_1073, Reshape_1007, Reshape_1093"/>
			</rt_info>
			<input>
				<port id="0" precision="FP32">
					<dim>-1</dim>
					<dim>32</dim>
					<dim>48</dim>
					<dim>48</dim>
				</port>
				<port id="1" precision="FP32">
					<dim>32</dim>
					<dim>1</dim>
					<dim>1</dim>
					<dim>3</dim>
					<dim>3</dim>
				</port>
			</input>
			<output>
				<port id="2" precision="FP32" names="205">
					<dim>-1</dim>
					<dim>32</dim>
					<dim>48</dim>
					<dim>48</dim>
				</port>
			</output>
		</layer>
		<layer id="41" name="backbone1.5.convs.1.weight" type="Const" version="opset1">
			<data element_type="f32" shape="32, 32, 1, 1" offset="9412" size="4096"/>
			<rt_info>
				<attribute name="fused_names" version="0" value="backbone1.5.convs.1.weight"/>
			</rt_info>
			<output>
				<port id="0" precision="FP32" names="backbone1.5.convs.1.weight">
					<dim>32</dim>
					<dim>32</dim>
					<dim>1</dim>
					<dim>1</dim>
				</port>
			</output>
		</layer>
		<layer id="42" name="Convolution_1121" type="Convolution" version="opset1">
			<data strides="1, 1" dilations="1, 1" pads_begin="0, 0" pads_end="0, 0" auto_pad="explicit"/>
			<rt_info>
				<attribute name="fused_names" version="0" value="Convolution_1121"/>
			</rt_info>
			<input>
				<port id="0" precision="FP32">
					<dim>-1</dim>
					<dim>32</dim>
					<dim>48</dim>
					<dim>48</dim>
				</port>
				<port id="1" precision="FP32">
					<dim>32</dim>
					<dim>32</dim>
					<dim>1</dim>
					<dim>1</dim>
				</port>
			</input>
			<output>
				<port id="2" precision="FP32">
					<dim>-1</dim>
					<dim>32</dim>
					<dim>48</dim>
					<dim>48</dim>
				</port>
			</output>
		</layer>
		<layer id="43" name="Reshape_1141" type="Const" version="opset1">
			<data element_type="f32" shape="1, 32, 1, 1" offset="13508" size="128"/>
			<output>
				<port id="0" precision="FP32">
					<dim>1</dim>
					<dim>32</dim>
					<dim>1</dim>
					<dim>1</dim>
				</port>
			</output>
		</layer>
		<layer id="44" name="206" type="Add" version="opset1">
			<data auto_broadcast="numpy"/>
			<rt_info>
				<attribute name="fused_names" version="0" value="206, Concat_1140, Reshape_1141"/>
			</rt_info>
			<input>
				<port id="0" precision="FP32">
					<dim>-1</dim>
					<dim>32</dim>
					<dim>48</dim>
					<dim>48</dim>
				</port>
				<port id="1" precision="FP32">
					<dim>1</dim>
					<dim>32</dim>
					<dim>1</dim>
					<dim>1</dim>
				</port>
			</input>
			<output>
				<port id="2" precision="FP32" names="206">
					<dim>-1</dim>
					<dim>32</dim>
					<dim>48</dim>
					<dim>48</dim>
				</port>
			</output>
		</layer>
		<layer id="45" name="207" type="Add" version="opset1">
			<data auto_broadcast="numpy"/>
			<rt_info>
				<attribute name="fused_names" version="0" value="207"/>
			</rt_info>
			<input>
				<port id="0" precision="FP32">
					<dim>-1</dim>
					<dim>32</dim>
					<dim>48</dim>
					<dim>48</dim>
				</port>
				<port id="1" precision="FP32">
					<dim>-1</dim>
					<dim>32</dim>
					<dim>48</dim>
					<dim>48</dim>
				</port>
			</input>
			<output>
				<port id="2" precision="FP32" names="207">
					<dim>-1</dim>
					<dim>32</dim>
					<dim>48</dim>
					<dim>48</dim>
				</port>
			</output>
		</layer>
		<layer id="46" name="497" type="Const" version="opset1">
			<data element_type="f32" shape="32, 1, 1" offset="13636" size="128"/>
			<rt_info>
				<attribute name="fused_names" version="0" value="497"/>
			</rt_info>
			<output>
				<port id="0" precision="FP32" names="497">
					<dim>32</dim>
					<dim>1</dim>
					<dim>1</dim>
				</port>
			</output>
		</layer>
		<layer id="47" name="209" type="PReLU" version="opset1">
			<rt_info>
				<attribute name="fused_names" version="0" value="209"/>
			</rt_info>
			<input>
				<port id="0" precision="FP32">
					<dim>-1</dim>
					<dim>32</dim>
					<dim>48</dim>
					<dim>48</dim>
				</port>
				<port id="1" precision="FP32">
					<dim>32</dim>
					<dim>1</dim>
					<dim>1</dim>
				</port>
			</input>
			<output>
				<port id="2" precision="FP32" names="209">
					<dim>-1</dim>
					<dim>32</dim>
					<dim>48</dim>
					<dim>48</dim>
				</port>
			</output>
		</layer>
		<layer id="48" name="Reshape_1178" type="Const" version="opset1">
			<data element_type="f32" shape="32, 1, 1, 3, 3" offset="13764" size="1152"/>
			<output>
				<port id="0" precision="FP32">
					<dim>32</dim>
					<dim>1</dim>
					<dim>1</dim>
					<dim>3</dim>
					<dim>3</dim>
				</port>
			</output>
		</layer>
		<layer id="49" name="GroupConvolution_1244" type="GroupConvolution" version="opset1">
			<data strides="1, 1" pads_begin="1, 1" pads_end="1, 1" dilations="1, 1" auto_pad="explicit"/>
			<rt_info>
				<attribute name="fused_names" version="0" value="210, Concat_1263, GroupConvolution_1244, Reshape_1178, Reshape_1264"/>
			</rt_info>
			<input>
				<port id="0" precision="FP32">
					<dim>-1</dim>
					<dim>32</dim>
					<dim>48</dim>
					<dim>48</dim>
				</port>
				<port id="1" precision="FP32">
					<dim>32</dim>
					<dim>1</dim>
					<dim>1</dim>
					<dim>3</dim>
					<dim>3</dim>
				</port>
			</input>
			<output>
				<port id="2" precision="FP32" names="210">
					<dim>-1</dim>
					<dim>32</dim>
					<dim>48</dim>
					<dim>48</dim>
				</port>
			</output>
		</layer>
		<layer id="50" name="backbone1.6.convs.1.weight" type="Const" version="opset1">
			<data element_type="f32" shape="32, 32, 1, 1" offset="14916" size="4096"/>
			<rt_info>
				<attribute name="fused_names" version="0" value="backbone1.6.convs.1.weight"/>
			</rt_info>
			<output>
				<port id="0" precision="FP32" names="backbone1.6.convs.1.weight">
					<dim>32</dim>
					<dim>32</dim>
					<dim>1</dim>
					<dim>1</dim>
				</port>
			</output>
		</layer>
		<layer id="51" name="Convolution_1292" type="Convolution" version="opset1">
			<data strides="1, 1" dilations="1, 1" pads_begin="0, 0" pads_end="0, 0" auto_pad="explicit"/>
			<rt_info>
				<attribute name="fused_names" version="0" value="Convolution_1292"/>
			</rt_info>
			<input>
				<port id="0" precision="FP32">
					<dim>-1</dim>
					<dim>32</dim>
					<dim>48</dim>
					<dim>48</dim>
				</port>
				<port id="1" precision="FP32">
					<dim>32</dim>
					<dim>32</dim>
					<dim>1</dim>
					<dim>1</dim>
				</port>
			</input>
			<output>
				<port id="2" precision="FP32">
					<dim>-1</dim>
					<dim>32</dim>
					<dim>48</dim>
					<dim>48</dim>
				</port>
			</output>
		</layer>
		<layer id="52" name="Reshape_1312" type="Const" version="opset1">
			<data element_type="f32" shape="1, 32, 1, 1" offset="19012" size="128"/>
			<output>
				<port id="0" precision="FP32">
					<dim>1</dim>
					<dim>32</dim>
					<dim>1</dim>
					<dim>1</dim>
				</port>
			</output>
		</layer>
		<layer id="53" name="211" type="Add" version="opset1">
			<data auto_broadcast="numpy"/>
			<rt_info>
				<attribute name="fused_names" version="0" value="211, Concat_1311, Reshape_1312"/>
			</rt_info>
			<input>
				<port id="0" precision="FP32">
					<dim>-1</dim>
					<dim>32</dim>
					<dim>48</dim>
					<dim>48</dim>
				</port>
				<port id="1" precision="FP32">
					<dim>1</dim>
					<dim>32</dim>
					<dim>1</dim>
					<dim>1</dim>
				</port>
			</input>
			<output>
				<port id="2" precision="FP32" names="211">
					<dim>-1</dim>
					<dim>32</dim>
					<dim>48</dim>
					<dim>48</dim>
				</port>
			</output>
		</layer>
		<layer id="54" name="212" type="Add" version="opset1">
			<data auto_broadcast="numpy"/>
			<rt_info>
				<attribute name="fused_names" version="0" value="212"/>
			</rt_info>
			<input>
				<port id="0" precision="FP32">
					<dim>-1</dim>
					<dim>32</dim>
					<dim>48</dim>
					<dim>48</dim>
				</port>
				<port id="1" precision="FP32">
					<dim>-1</dim>
					<dim>32</dim>
					<dim>48</dim>
					<dim>48</dim>
				</port>
			</input>
			<output>
				<port id="2" precision="FP32" names="212">
					<dim>-1</dim>
					<dim>32</dim>
					<dim>48</dim>
					<dim>48</dim>
				</port>
			</output>
		</layer>
		<layer id="55" name="498" type="Const" version="opset1">
			<data element_type="f32" shape="32, 1, 1" offset="19140" size="128"/>
			<rt_info>
				<attribute name="fused_names" version="0" value="498"/>
			</rt_info>
			<output>
				<port id="0" precision="FP32" names="498">
					<dim>32</dim>
					<dim>1</dim>
					<dim>1</dim>
				</port>
			</output>
		</layer>
		<layer id="56" name="214" type="PReLU" version="opset1">
			<rt_info>
				<attribute name="fused_names" version="0" value="214"/>
			</rt_info>
			<input>
				<port id="0" precision="FP32">
					<dim>-1</dim>
					<dim>32</dim>
					<dim>48</dim>
					<dim>48</dim>
				</port>
				<port id="1" precision="FP32">
					<dim>32</dim>
					<dim>1</dim>
					<dim>1</dim>
				</port>
			</input>
			<output>
				<port id="2" precision="FP32" names="214">
					<dim>-1</dim>
					<dim>32</dim>
					<dim>48</dim>
					<dim>48</dim>
				</port>
			</output>
		</layer>
		<layer id="57" name="Reshape_1552" type="Const" version="opset1">
			<data element_type="f32" shape="32, 1, 1, 3, 3" offset="19268" size="1152"/>
			<output>
				<port id="0" precision="FP32">
					<dim>32</dim>
					<dim>1</dim>
					<dim>1</dim>
					<dim>3</dim>
					<dim>3</dim>
				</port>
			</output>
		</layer>
		<layer id="58" name="GroupConvolution_1618" type="GroupConvolution" version="opset1">
			<data strides="2, 2" pads_begin="0, 0" pads_end="2, 2" dilations="1, 1" auto_pad="explicit"/>
			<rt_info>
				<attribute name="fused_names" version="0" value="238, 264, Concat_1637, GroupConvolution_1618, Reshape_1552, Reshape_1638, Split_1375"/>
			</rt_info>
			<input>
				<port id="0" precision="FP32">
					<dim>-1</dim>
					<dim>32</dim>
					<dim>48</dim>
					<dim>48</dim>
				</port>
				<port id="1" precision="FP32">
					<dim>32</dim>
					<dim>1</dim>
					<dim>1</dim>
					<dim>3</dim>
					<dim>3</dim>
				</port>
			</input>
			<output>
				<port id="2" precision="FP32" names="264">
					<dim>-1</dim>
					<dim>32</dim>
					<dim>24</dim>
					<dim>24</dim>
				</port>
			</output>
		</layer>
		<layer id="59" name="backbone1.7.convs.1.weight" type="Const" version="opset1">
			<data element_type="f32" shape="64, 32, 1, 1" offset="20420" size="8192"/>
			<rt_info>
				<attribute name="fused_names" version="0" value="backbone1.7.convs.1.weight"/>
			</rt_info>
			<output>
				<port id="0" precision="FP32" names="backbone1.7.convs.1.weight">
					<dim>64</dim>
					<dim>32</dim>
					<dim>1</dim>
					<dim>1</dim>
				</port>
			</output>
		</layer>
		<layer id="60" name="Convolution_1666" type="Convolution" version="opset1">
			<data strides="1, 1" dilations="1, 1" pads_begin="0, 0" pads_end="0, 0" auto_pad="explicit"/>
			<rt_info>
				<attribute name="fused_names" version="0" value="Convolution_1666"/>
			</rt_info>
			<input>
				<port id="0" precision="FP32">
					<dim>-1</dim>
					<dim>32</dim>
					<dim>24</dim>
					<dim>24</dim>
				</port>
				<port id="1" precision="FP32">
					<dim>64</dim>
					<dim>32</dim>
					<dim>1</dim>
					<dim>1</dim>
				</port>
			</input>
			<output>
				<port id="2" precision="FP32">
					<dim>-1</dim>
					<dim>64</dim>
					<dim>24</dim>
					<dim>24</dim>
				</port>
			</output>
		</layer>
		<layer id="61" name="Reshape_1686" type="Const" version="opset1">
			<data element_type="f32" shape="1, 64, 1, 1" offset="28612" size="256"/>
			<output>
				<port id="0" precision="FP32">
					<dim>1</dim>
					<dim>64</dim>
					<dim>1</dim>
					<dim>1</dim>
				</port>
			</output>
		</layer>
		<layer id="62" name="265" type="Add" version="opset1">
			<data auto_broadcast="numpy"/>
			<rt_info>
				<attribute name="fused_names" version="0" value="265, Concat_1685, Reshape_1686"/>
			</rt_info>
			<input>
				<port id="0" precision="FP32">
					<dim>-1</dim>
					<dim>64</dim>
					<dim>24</dim>
					<dim>24</dim>
				</port>
				<port id="1" precision="FP32">
					<dim>1</dim>
					<dim>64</dim>
					<dim>1</dim>
					<dim>1</dim>
				</port>
			</input>
			<output>
				<port id="2" precision="FP32" names="265">
					<dim>-1</dim>
					<dim>64</dim>
					<dim>24</dim>
					<dim>24</dim>
				</port>
			</output>
		</layer>
		<layer id="63" name="239" type="MaxPool" version="opset8">
			<data strides="2, 2" dilations="1, 1" pads_begin="0, 0" pads_end="0, 0" kernel="2, 2" rounding_type="floor" auto_pad="explicit" index_element_type="i64" axis="0"/>
			<rt_info>
				<attribute name="fused_names" version="0" value="239"/>
			</rt_info>
			<input>
				<port id="0" precision="FP32">
					<dim>-1</dim>
					<dim>32</dim>
					<dim>48</dim>
					<dim>48</dim>
				</port>
			</input>
			<output>
				<port id="1" precision="FP32" names="239">
					<dim>-1</dim>
					<dim>32</dim>
					<dim>24</dim>
					<dim>24</dim>
				</port>
				<port id="2" precision="I64">
					<dim>-1</dim>
					<dim>32</dim>
					<dim>24</dim>
					<dim>24</dim>
				</port>
			</output>
		</layer>
		<layer id="64" name="Split_1477.0" type="Const" version="opset1">
			<data element_type="i64" shape="4" offset="8064" size="32"/>
			<output>
				<port id="0" precision="I64">
					<dim>4</dim>
				</port>
			</output>
		</layer>
		<layer id="65" name="Split_1477.1" type="Const" version="opset1">
			<data element_type="i64" shape="4" offset="28868" size="32"/>
			<output>
				<port id="0" precision="I64">
					<dim>4</dim>
				</port>
			</output>
		</layer>
		<layer id="66" name="262" type="Const" version="opset1">
			<data element_type="f32" shape="" offset="8128" size="4"/>
			<rt_info>
				<attribute name="fused_names" version="0" value="262"/>
			</rt_info>
			<output>
				<port id="0" precision="FP32" names="262"/>
			</output>
		</layer>
		<layer id="67" name="263" type="Pad" version="opset1">
			<data pad_mode="constant"/>
			<rt_info>
				<attribute name="fused_names" version="0" value="263, Split_1477"/>
			</rt_info>
			<input>
				<port id="0" precision="FP32">
					<dim>-1</dim>
					<dim>32</dim>
					<dim>24</dim>
					<dim>24</dim>
				</port>
				<port id="1" precision="I64">
					<dim>4</dim>
				</port>
				<port id="2" precision="I64">
					<dim>4</dim>
				</port>
				<port id="3" precision="FP32"/>
			</input>
			<output>
				<port id="4" precision="FP32" names="263">
					<dim>-1</dim>
					<dim>64</dim>
					<dim>24</dim>
					<dim>24</dim>
				</port>
			</output>
		</layer>
		<layer id="68" name="266" type="Add" version="opset1">
			<data auto_broadcast="numpy"/>
			<rt_info>
				<attribute name="fused_names" version="0" value="266"/>
			</rt_info>
			<input>
				<port id="0" precision="FP32">
					<dim>-1</dim>
					<dim>64</dim>
					<dim>24</dim>
					<dim>24</dim>
				</port>
				<port id="1" precision="FP32">
					<dim>-1</dim>
					<dim>64</dim>
					<dim>24</dim>
					<dim>24</dim>
				</port>
			</input>
			<output>
				<port id="2" precision="FP32" names="266">
					<dim>-1</dim>
					<dim>64</dim>
					<dim>24</dim>
					<dim>24</dim>
				</port>
			</output>
		</layer>
		<layer id="69" name="509" type="Const" version="opset1">
			<data element_type="f32" shape="64, 1, 1" offset="28900" size="256"/>
			<rt_info>
				<attribute name="fused_names" version="0" value="509"/>
			</rt_info>
			<output>
				<port id="0" precision="FP32" names="509">
					<dim>64</dim>
					<dim>1</dim>
					<dim>1</dim>
				</port>
			</output>
		</layer>
		<layer id="70" name="268" type="PReLU" version="opset1">
			<rt_info>
				<attribute name="fused_names" version="0" value="268"/>
			</rt_info>
			<input>
				<port id="0" precision="FP32">
					<dim>-1</dim>
					<dim>64</dim>
					<dim>24</dim>
					<dim>24</dim>
				</port>
				<port id="1" precision="FP32">
					<dim>64</dim>
					<dim>1</dim>
					<dim>1</dim>
				</port>
			</input>
			<output>
				<port id="2" precision="FP32" names="268">
					<dim>-1</dim>
					<dim>64</dim>
					<dim>24</dim>
					<dim>24</dim>
				</port>
			</output>
		</layer>
		<layer id="71" name="Reshape_1723" type="Const" version="opset1">
			<data element_type="f32" shape="64, 1, 1, 3, 3" offset="29156" size="2304"/>
			<output>
				<port id="0" precision="FP32">
					<dim>64</dim>
					<dim>1</dim>
					<dim>1</dim>
					<dim>3</dim>
					<dim>3</dim>
				</port>
			</output>
		</layer>
		<layer id="72" name="GroupConvolution_1789" type="GroupConvolution" version="opset1">
			<data strides="1, 1" pads_begin="1, 1" pads_end="1, 1" dilations="1, 1" auto_pad="explicit"/>
			<rt_info>
				<attribute name="fused_names" version="0" value="269, Concat_1808, GroupConvolution_1789, Reshape_1723, Reshape_1809"/>
			</rt_info>
			<input>
				<port id="0" precision="FP32">
					<dim>-1</dim>
					<dim>64</dim>
					<dim>24</dim>
					<dim>24</dim>
				</port>
				<port id="1" precision="FP32">
					<dim>64</dim>
					<dim>1</dim>
					<dim>1</dim>
					<dim>3</dim>
					<dim>3</dim>
				</port>
			</input>
			<output>
				<port id="2" precision="FP32" names="269">
					<dim>-1</dim>
					<dim>64</dim>
					<dim>24</dim>
					<dim>24</dim>
				</port>
			</output>
		</layer>
		<layer id="73" name="backbone1.8.convs.1.weight" type="Const" version="opset1">
			<data element_type="f32" shape="64, 64, 1, 1" offset="31460" size="16384"/>
			<rt_info>
				<attribute name="fused_names" version="0" value="backbone1.8.convs.1.weight"/>
			</rt_info>
			<output>
				<port id="0" precision="FP32" names="backbone1.8.convs.1.weight">
					<dim>64</dim>
					<dim>64</dim>
					<dim>1</dim>
					<dim>1</dim>
				</port>
			</output>
		</layer>
		<layer id="74" name="Convolution_1837" type="Convolution" version="opset1">
			<data strides="1, 1" dilations="1, 1" pads_begin="0, 0" pads_end="0, 0" auto_pad="explicit"/>
			<rt_info>
				<attribute name="fused_names" version="0" value="Convolution_1837"/>
			</rt_info>
			<input>
				<port id="0" precision="FP32">
					<dim>-1</dim>
					<dim>64</dim>
					<dim>24</dim>
					<dim>24</dim>
				</port>
				<port id="1" precision="FP32">
					<dim>64</dim>
					<dim>64</dim>
					<dim>1</dim>
					<dim>1</dim>
				</port>
			</input>
			<output>
				<port id="2" precision="FP32">
					<dim>-1</dim>
					<dim>64</dim>
					<dim>24</dim>
					<dim>24</dim>
				</port>
			</output>
		</layer>
		<layer id="75" name="Reshape_1857" type="Const" version="opset1">
			<data element_type="f32" shape="1, 64, 1, 1" offset="47844" size="256"/>
			<output>
				<port id="0" precision="FP32">
					<dim>1</dim>
					<dim>64</dim>
					<dim>1</dim>
					<dim>1</dim>
				</port>
			</output>
		</layer>
		<layer id="76" name="270" type="Add" version="opset1">
			<data auto_broadcast="numpy"/>
			<rt_info>
				<attribute name="fused_names" version="0" value="270, Concat_1856, Reshape_1857"/>
			</rt_info>
			<input>
				<port id="0" precision="FP32">
					<dim>-1</dim>
					<dim>64</dim>
					<dim>24</dim>
					<dim>24</dim>
				</port>
				<port id="1" precision="FP32">
					<dim>1</dim>
					<dim>64</dim>
					<dim>1</dim>
					<dim>1</dim>
				</port>
			</input>
			<output>
				<port id="2" precision="FP32" names="270">
					<dim>-1</dim>
					<dim>64</dim>
					<dim>24</dim>
					<dim>24</dim>
				</port>
			</output>
		</layer>
		<layer id="77" name="271" type="Add" version="opset1">
			<data auto_broadcast="numpy"/>
			<rt_info>
				<attribute name="fused_names" version="0" value="271"/>
			</rt_info>
			<input>
				<port id="0" precision="FP32">
					<dim>-1</dim>
					<dim>64</dim>
					<dim>24</dim>
					<dim>24</dim>
				</port>
				<port id="1" precision="FP32">
					<dim>-1</dim>
					<dim>64</dim>
					<dim>24</dim>
					<dim>24</dim>
				</port>
			</input>
			<output>
				<port id="2" precision="FP32" names="271">
					<dim>-1</dim>
					<dim>64</dim>
					<dim>24</dim>
					<dim>24</dim>
				</port>
			</output>
		</layer>
		<layer id="78" name="510" type="Const" version="opset1">
			<data element_type="f32" shape="64, 1, 1" offset="48100" size="256"/>
			<rt_info>
				<attribute name="fused_names" version="0" value="510"/>
			</rt_info>
			<output>
				<port id="0" precision="FP32" names="510">
					<dim>64</dim>
					<dim>1</dim>
					<dim>1</dim>
				</port>
			</output>
		</layer>
		<layer id="79" name="273" type="PReLU" version="opset1">
			<rt_info>
				<attribute name="fused_names" version="0" value="273"/>
			</rt_info>
			<input>
				<port id="0" precision="FP32">
					<dim>-1</dim>
					<dim>64</dim>
					<dim>24</dim>
					<dim>24</dim>
				</port>
				<port id="1" precision="FP32">
					<dim>64</dim>
					<dim>1</dim>
					<dim>1</dim>
				</port>
			</input>
			<output>
				<port id="2" precision="FP32" names="273">
					<dim>-1</dim>
					<dim>64</dim>
					<dim>24</dim>
					<dim>24</dim>
				</port>
			</output>
		</layer>
		<layer id="80" name="Reshape_1894" type="Const" version="opset1">
			<data element_type="f32" shape="64, 1, 1, 3, 3" offset="48356" size="2304"/>
			<output>
				<port id="0" precision="FP32">
					<dim>64</dim>
					<dim>1</dim>
					<dim>1</dim>
					<dim>3</dim>
					<dim>3</dim>
				</port>
			</output>
		</layer>
		<layer id="81" name="GroupConvolution_1960" type="GroupConvolution" version="opset1">
			<data strides="1, 1" pads_begin="1, 1" pads_end="1, 1" dilations="1, 1" auto_pad="explicit"/>
			<rt_info>
				<attribute name="fused_names" version="0" value="274, Concat_1979, GroupConvolution_1960, Reshape_1894, Reshape_1980"/>
			</rt_info>
			<input>
				<port id="0" precision="FP32">
					<dim>-1</dim>
					<dim>64</dim>
					<dim>24</dim>
					<dim>24</dim>
				</port>
				<port id="1" precision="FP32">
					<dim>64</dim>
					<dim>1</dim>
					<dim>1</dim>
					<dim>3</dim>
					<dim>3</dim>
				</port>
			</input>
			<output>
				<port id="2" precision="FP32" names="274">
					<dim>-1</dim>
					<dim>64</dim>
					<dim>24</dim>
					<dim>24</dim>
				</port>
			</output>
		</layer>
		<layer id="82" name="backbone1.9.convs.1.weight" type="Const" version="opset1">
			<data element_type="f32" shape="64, 64, 1, 1" offset="50660" size="16384"/>
			<rt_info>
				<attribute name="fused_names" version="0" value="backbone1.9.convs.1.weight"/>
			</rt_info>
			<output>
				<port id="0" precision="FP32" names="backbone1.9.convs.1.weight">
					<dim>64</dim>
					<dim>64</dim>
					<dim>1</dim>
					<dim>1</dim>
				</port>
			</output>
		</layer>
		<layer id="83" name="Convolution_2008" type="Convolution" version="opset1">
			<data strides="1, 1" dilations="1, 1" pads_begin="0, 0" pads_end="0, 0" auto_pad="explicit"/>
			<rt_info>
				<attribute name="fused_names" version="0" value="Convolution_2008"/>
			</rt_info>
			<input>
				<port id="0" precision="FP32">
					<dim>-1</dim>
					<dim>64</dim>
					<dim>24</dim>
					<dim>24</dim>
				</port>
				<port id="1" precision="FP32">
					<dim>64</dim>
					<dim>64</dim>
					<dim>1</dim>
					<dim>1</dim>
				</port>
			</input>
			<output>
				<port id="2" precision="FP32">
					<dim>-1</dim>
					<dim>64</dim>
					<dim>24</dim>
					<dim>24</dim>
				</port>
			</output>
		</layer>
		<layer id="84" name="Reshape_2028" type="Const" version="opset1">
			<data element_type="f32" shape="1, 64, 1, 1" offset="67044" size="256"/>
			<output>
				<port id="0" precision="FP32">
					<dim>1</dim>
					<dim>64</dim>
					<dim>1</dim>
					<dim>1</dim>
				</port>
			</output>
		</layer>
		<layer id="85" name="275" type="Add" version="opset1">
			<data auto_broadcast="numpy"/>
			<rt_info>
				<attribute name="fused_names" version="0" value="275, Concat_2027, Reshape_2028"/>
			</rt_info>
			<input>
				<port id="0" precision="FP32">
					<dim>-1</dim>
					<dim>64</dim>
					<dim>24</dim>
					<dim>24</dim>
				</port>
				<port id="1" precision="FP32">
					<dim>1</dim>
					<dim>64</dim>
					<dim>1</dim>
					<dim>1</dim>
				</port>
			</input>
			<output>
				<port id="2" precision="FP32" names="275">
					<dim>-1</dim>
					<dim>64</dim>
					<dim>24</dim>
					<dim>24</dim>
				</port>
			</output>
		</layer>
		<layer id="86" name="276" type="Add" version="opset1">
			<data auto_broadcast="numpy"/>
			<rt_info>
				<attribute name="fused_names" version="0" value="276"/>
			</rt_info>
			<input>
				<port id="0" precision="FP32">
					<dim>-1</dim>
					<dim>64</dim>
					<dim>24</dim>
					<dim>24</dim>
				</port>
				<port id="1" precision="FP32">
					<dim>-1</dim>
					<dim>64</dim>
					<dim>24</dim>
					<dim>24</dim>
				</port>
			</input>
			<output>
				<port id="2" precision="FP32" names="276">
					<dim>-1</dim>
					<dim>64</dim>
					<dim>24</dim>
					<dim>24</dim>
				</port>
			</output>
		</layer>
		<layer id="87" name="511" type="Const" version="opset1">
			<data element_type="f32" shape="64, 1, 1" offset="67300" size="256"/>
			<rt_info>
				<attribute name="fused_names" version="0" value="511"/>
			</rt_info>
			<output>
				<port id="0" precision="FP32" names="511">
					<dim>64</dim>
					<dim>1</dim>
					<dim>1</dim>
				</port>
			</output>
		</layer>
		<layer id="88" name="278" type="PReLU" version="opset1">
			<rt_info>
				<attribute name="fused_names" version="0" value="278"/>
			</rt_info>
			<input>
				<port id="0" precision="FP32">
					<dim>-1</dim>
					<dim>64</dim>
					<dim>24</dim>
					<dim>24</dim>
				</port>
				<port id="1" precision="FP32">
					<dim>64</dim>
					<dim>1</dim>
					<dim>1</dim>
				</port>
			</input>
			<output>
				<port id="2" precision="FP32" names="278">
					<dim>-1</dim>
					<dim>64</dim>
					<dim>24</dim>
					<dim>24</dim>
				</port>
			</output>
		</layer>
		<layer id="89" name="Reshape_2268" type="Const" version="opset1">
			<data element_type="f32" shape="64, 1, 1, 3, 3" offset="67556" size="2304"/>
			<output>
				<port id="0" precision="FP32">
					<dim>64</dim>
					<dim>1</dim>
					<dim>1</dim>
					<dim>3</dim>
					<dim>3</dim>
				</port>
			</output>
		</layer>
		<layer id="90" name="GroupConvolution_2334" type="GroupConvolution" version="opset1">
			<data strides="2, 2" pads_begin="0, 0" pads_end="2, 2" dilations="1, 1" auto_pad="explicit"/>
			<rt_info>
				<attribute name="fused_names" version="0" value="302, 328, Concat_2353, GroupConvolution_2334, Reshape_2268, Reshape_2354, Split_2091"/>
			</rt_info>
			<input>
				<port id="0" precision="FP32">
					<dim>-1</dim>
					<dim>64</dim>
					<dim>24</dim>
					<dim>24</dim>
				</port>
				<port id="1" precision="FP32">
					<dim>64</dim>
					<dim>1</dim>
					<dim>1</dim>
					<dim>3</dim>
					<dim>3</dim>
				</port>
			</input>
			<output>
				<port id="2" precision="FP32" names="328">
					<dim>-1</dim>
					<dim>64</dim>
					<dim>12</dim>
					<dim>12</dim>
				</port>
			</output>
		</layer>
		<layer id="91" name="backbone1.10.convs.1.weight" type="Const" version="opset1">
			<data element_type="f32" shape="128, 64, 1, 1" offset="69860" size="32768"/>
			<rt_info>
				<attribute name="fused_names" version="0" value="backbone1.10.convs.1.weight"/>
			</rt_info>
			<output>
				<port id="0" precision="FP32" names="backbone1.10.convs.1.weight">
					<dim>128</dim>
					<dim>64</dim>
					<dim>1</dim>
					<dim>1</dim>
				</port>
			</output>
		</layer>
		<layer id="92" name="Convolution_2382" type="Convolution" version="opset1">
			<data strides="1, 1" dilations="1, 1" pads_begin="0, 0" pads_end="0, 0" auto_pad="explicit"/>
			<rt_info>
				<attribute name="fused_names" version="0" value="Convolution_2382"/>
			</rt_info>
			<input>
				<port id="0" precision="FP32">
					<dim>-1</dim>
					<dim>64</dim>
					<dim>12</dim>
					<dim>12</dim>
				</port>
				<port id="1" precision="FP32">
					<dim>128</dim>
					<dim>64</dim>
					<dim>1</dim>
					<dim>1</dim>
				</port>
			</input>
			<output>
				<port id="2" precision="FP32">
					<dim>-1</dim>
					<dim>128</dim>
					<dim>12</dim>
					<dim>12</dim>
				</port>
			</output>
		</layer>
		<layer id="93" name="Reshape_2402" type="Const" version="opset1">
			<data element_type="f32" shape="1, 128, 1, 1" offset="102628" size="512"/>
			<output>
				<port id="0" precision="FP32">
					<dim>1</dim>
					<dim>128</dim>
					<dim>1</dim>
					<dim>1</dim>
				</port>
			</output>
		</layer>
		<layer id="94" name="329" type="Add" version="opset1">
			<data auto_broadcast="numpy"/>
			<rt_info>
				<attribute name="fused_names" version="0" value="329, Concat_2401, Reshape_2402"/>
			</rt_info>
			<input>
				<port id="0" precision="FP32">
					<dim>-1</dim>
					<dim>128</dim>
					<dim>12</dim>
					<dim>12</dim>
				</port>
				<port id="1" precision="FP32">
					<dim>1</dim>
					<dim>128</dim>
					<dim>1</dim>
					<dim>1</dim>
				</port>
			</input>
			<output>
				<port id="2" precision="FP32" names="329">
					<dim>-1</dim>
					<dim>128</dim>
					<dim>12</dim>
					<dim>12</dim>
				</port>
			</output>
		</layer>
		<layer id="95" name="303" type="MaxPool" version="opset8">
			<data strides="2, 2" dilations="1, 1" pads_begin="0, 0" pads_end="0, 0" kernel="2, 2" rounding_type="floor" auto_pad="explicit" index_element_type="i64" axis="0"/>
			<rt_info>
				<attribute name="fused_names" version="0" value="303"/>
			</rt_info>
			<input>
				<port id="0" precision="FP32">
					<dim>-1</dim>
					<dim>64</dim>
					<dim>24</dim>
					<dim>24</dim>
				</port>
			</input>
			<output>
				<port id="1" precision="FP32" names="303">
					<dim>-1</dim>
					<dim>64</dim>
					<dim>12</dim>
					<dim>12</dim>
				</port>
				<port id="2" precision="I64">
					<dim>-1</dim>
					<dim>64</dim>
					<dim>12</dim>
					<dim>12</dim>
				</port>
			</output>
		</layer>
		<layer id="96" name="Split_2193.0" type="Const" version="opset1">
			<data element_type="i64" shape="4" offset="8064" size="32"/>
			<output>
				<port id="0" precision="I64">
					<dim>4</dim>
				</port>
			</output>
		</layer>
		<layer id="97" name="Split_2193.1" type="Const" version="opset1">
			<data element_type="i64" shape="4" offset="103140" size="32"/>
			<output>
				<port id="0" precision="I64">
					<dim>4</dim>
				</port>
			</output>
		</layer>
		<layer id="98" name="326" type="Const" version="opset1">
			<data element_type="f32" shape="" offset="8128" size="4"/>
			<rt_info>
				<attribute name="fused_names" version="0" value="326"/>
			</rt_info>
			<output>
				<port id="0" precision="FP32" names="326"/>
			</output>
		</layer>
		<layer id="99" name="327" type="Pad" version="opset1">
			<data pad_mode="constant"/>
			<rt_info>
				<attribute name="fused_names" version="0" value="327, Split_2193"/>
			</rt_info>
			<input>
				<port id="0" precision="FP32">
					<dim>-1</dim>
					<dim>64</dim>
					<dim>12</dim>
					<dim>12</dim>
				</port>
				<port id="1" precision="I64">
					<dim>4</dim>
				</port>
				<port id="2" precision="I64">
					<dim>4</dim>
				</port>
				<port id="3" precision="FP32"/>
			</input>
			<output>
				<port id="4" precision="FP32" names="327">
					<dim>-1</dim>
					<dim>128</dim>
					<dim>12</dim>
					<dim>12</dim>
				</port>
			</output>
		</layer>
		<layer id="100" name="330" type="Add" version="opset1">
			<data auto_broadcast="numpy"/>
			<rt_info>
				<attribute name="fused_names" version="0" value="330"/>
			</rt_info>
			<input>
				<port id="0" precision="FP32">
					<dim>-1</dim>
					<dim>128</dim>
					<dim>12</dim>
					<dim>12</dim>
				</port>
				<port id="1" precision="FP32">
					<dim>-1</dim>
					<dim>128</dim>
					<dim>12</dim>
					<dim>12</dim>
				</port>
			</input>
			<output>
				<port id="2" precision="FP32" names="330">
					<dim>-1</dim>
					<dim>128</dim>
					<dim>12</dim>
					<dim>12</dim>
				</port>
			</output>
		</layer>
		<layer id="101" name="522" type="Const" version="opset1">
			<data element_type="f32" shape="128, 1, 1" offset="103172" size="512"/>
			<rt_info>
				<attribute name="fused_names" version="0" value="522"/>
			</rt_info>
			<output>
				<port id="0" precision="FP32" names="522">
					<dim>128</dim>
					<dim>1</dim>
					<dim>1</dim>
				</port>
			</output>
		</layer>
		<layer id="102" name="332" type="PReLU" version="opset1">
			<rt_info>
				<attribute name="fused_names" version="0" value="332"/>
			</rt_info>
			<input>
				<port id="0" precision="FP32">
					<dim>-1</dim>
					<dim>128</dim>
					<dim>12</dim>
					<dim>12</dim>
				</port>
				<port id="1" precision="FP32">
					<dim>128</dim>
					<dim>1</dim>
					<dim>1</dim>
				</port>
			</input>
			<output>
				<port id="2" precision="FP32" names="332">
					<dim>-1</dim>
					<dim>128</dim>
					<dim>12</dim>
					<dim>12</dim>
				</port>
			</output>
		</layer>
		<layer id="103" name="Reshape_2439" type="Const" version="opset1">
			<data element_type="f32" shape="128, 1, 1, 3, 3" offset="103684" size="4608"/>
			<output>
				<port id="0" precision="FP32">
					<dim>128</dim>
					<dim>1</dim>
					<dim>1</dim>
					<dim>3</dim>
					<dim>3</dim>
				</port>
			</output>
		</layer>
		<layer id="104" name="GroupConvolution_2505" type="GroupConvolution" version="opset1">
			<data strides="1, 1" pads_begin="1, 1" pads_end="1, 1" dilations="1, 1" auto_pad="explicit"/>
			<rt_info>
				<attribute name="fused_names" version="0" value="333, Concat_2524, GroupConvolution_2505, Reshape_2439, Reshape_2525"/>
			</rt_info>
			<input>
				<port id="0" precision="FP32">
					<dim>-1</dim>
					<dim>128</dim>
					<dim>12</dim>
					<dim>12</dim>
				</port>
				<port id="1" precision="FP32">
					<dim>128</dim>
					<dim>1</dim>
					<dim>1</dim>
					<dim>3</dim>
					<dim>3</dim>
				</port>
			</input>
			<output>
				<port id="2" precision="FP32" names="333">
					<dim>-1</dim>
					<dim>128</dim>
					<dim>12</dim>
					<dim>12</dim>
				</port>
			</output>
		</layer>
		<layer id="105" name="backbone1.11.convs.1.weight" type="Const" version="opset1">
			<data element_type="f32" shape="128, 128, 1, 1" offset="108292" size="65536"/>
			<rt_info>
				<attribute name="fused_names" version="0" value="backbone1.11.convs.1.weight"/>
			</rt_info>
			<output>
				<port id="0" precision="FP32" names="backbone1.11.convs.1.weight">
					<dim>128</dim>
					<dim>128</dim>
					<dim>1</dim>
					<dim>1</dim>
				</port>
			</output>
		</layer>
		<layer id="106" name="Convolution_2553" type="Convolution" version="opset1">
			<data strides="1, 1" dilations="1, 1" pads_begin="0, 0" pads_end="0, 0" auto_pad="explicit"/>
			<rt_info>
				<attribute name="fused_names" version="0" value="Convolution_2553"/>
			</rt_info>
			<input>
				<port id="0" precision="FP32">
					<dim>-1</dim>
					<dim>128</dim>
					<dim>12</dim>
					<dim>12</dim>
				</port>
				<port id="1" precision="FP32">
					<dim>128</dim>
					<dim>128</dim>
					<dim>1</dim>
					<dim>1</dim>
				</port>
			</input>
			<output>
				<port id="2" precision="FP32">
					<dim>-1</dim>
					<dim>128</dim>
					<dim>12</dim>
					<dim>12</dim>
				</port>
			</output>
		</layer>
		<layer id="107" name="Reshape_2573" type="Const" version="opset1">
			<data element_type="f32" shape="1, 128, 1, 1" offset="173828" size="512"/>
			<output>
				<port id="0" precision="FP32">
					<dim>1</dim>
					<dim>128</dim>
					<dim>1</dim>
					<dim>1</dim>
				</port>
			</output>
		</layer>
		<layer id="108" name="334" type="Add" version="opset1">
			<data auto_broadcast="numpy"/>
			<rt_info>
				<attribute name="fused_names" version="0" value="334, Concat_2572, Reshape_2573"/>
			</rt_info>
			<input>
				<port id="0" precision="FP32">
					<dim>-1</dim>
					<dim>128</dim>
					<dim>12</dim>
					<dim>12</dim>
				</port>
				<port id="1" precision="FP32">
					<dim>1</dim>
					<dim>128</dim>
					<dim>1</dim>
					<dim>1</dim>
				</port>
			</input>
			<output>
				<port id="2" precision="FP32" names="334">
					<dim>-1</dim>
					<dim>128</dim>
					<dim>12</dim>
					<dim>12</dim>
				</port>
			</output>
		</layer>
		<layer id="109" name="335" type="Add" version="opset1">
			<data auto_broadcast="numpy"/>
			<rt_info>
				<attribute name="fused_names" version="0" value="335"/>
			</rt_info>
			<input>
				<port id="0" precision="FP32">
					<dim>-1</dim>
					<dim>128</dim>
					<dim>12</dim>
					<dim>12</dim>
				</port>
				<port id="1" precision="FP32">
					<dim>-1</dim>
					<dim>128</dim>
					<dim>12</dim>
					<dim>12</dim>
				</port>
			</input>
			<output>
				<port id="2" precision="FP32" names="335">
					<dim>-1</dim>
					<dim>128</dim>
					<dim>12</dim>
					<dim>12</dim>
				</port>
			</output>
		</layer>
		<layer id="110" name="523" type="Const" version="opset1">
			<data element_type="f32" shape="128, 1, 1" offset="174340" size="512"/>
			<rt_info>
				<attribute name="fused_names" version="0" value="523"/>
			</rt_info>
			<output>
				<port id="0" precision="FP32" names="523">
					<dim>128</dim>
					<dim>1</dim>
					<dim>1</dim>
				</port>
			</output>
		</layer>
		<layer id="111" name="337" type="PReLU" version="opset1">
			<rt_info>
				<attribute name="fused_names" version="0" value="337"/>
			</rt_info>
			<input>
				<port id="0" precision="FP32">
					<dim>-1</dim>
					<dim>128</dim>
					<dim>12</dim>
					<dim>12</dim>
				</port>
				<port id="1" precision="FP32">
					<dim>128</dim>
					<dim>1</dim>
					<dim>1</dim>
				</port>
			</input>
			<output>
				<port id="2" precision="FP32" names="337">
					<dim>-1</dim>
					<dim>128</dim>
					<dim>12</dim>
					<dim>12</dim>
				</port>
			</output>
		</layer>
		<layer id="112" name="Reshape_2610" type="Const" version="opset1">
			<data element_type="f32" shape="128, 1, 1, 3, 3" offset="174852" size="4608"/>
			<output>
				<port id="0" precision="FP32">
					<dim>128</dim>
					<dim>1</dim>
					<dim>1</dim>
					<dim>3</dim>
					<dim>3</dim>
				</port>
			</output>
		</layer>
		<layer id="113" name="GroupConvolution_2676" type="GroupConvolution" version="opset1">
			<data strides="1, 1" pads_begin="1, 1" pads_end="1, 1" dilations="1, 1" auto_pad="explicit"/>
			<rt_info>
				<attribute name="fused_names" version="0" value="338, Concat_2695, GroupConvolution_2676, Reshape_2610, Reshape_2696"/>
			</rt_info>
			<input>
				<port id="0" precision="FP32">
					<dim>-1</dim>
					<dim>128</dim>
					<dim>12</dim>
					<dim>12</dim>
				</port>
				<port id="1" precision="FP32">
					<dim>128</dim>
					<dim>1</dim>
					<dim>1</dim>
					<dim>3</dim>
					<dim>3</dim>
				</port>
			</input>
			<output>
				<port id="2" precision="FP32" names="338">
					<dim>-1</dim>
					<dim>128</dim>
					<dim>12</dim>
					<dim>12</dim>
				</port>
			</output>
		</layer>
		<layer id="114" name="backbone1.12.convs.1.weight" type="Const" version="opset1">
			<data element_type="f32" shape="128, 128, 1, 1" offset="179460" size="65536"/>
			<rt_info>
				<attribute name="fused_names" version="0" value="backbone1.12.convs.1.weight"/>
			</rt_info>
			<output>
				<port id="0" precision="FP32" names="backbone1.12.convs.1.weight">
					<dim>128</dim>
					<dim>128</dim>
					<dim>1</dim>
					<dim>1</dim>
				</port>
			</output>
		</layer>
		<layer id="115" name="Convolution_2724" type="Convolution" version="opset1">
			<data strides="1, 1" dilations="1, 1" pads_begin="0, 0" pads_end="0, 0" auto_pad="explicit"/>
			<rt_info>
				<attribute name="fused_names" version="0" value="Convolution_2724"/>
			</rt_info>
			<input>
				<port id="0" precision="FP32">
					<dim>-1</dim>
					<dim>128</dim>
					<dim>12</dim>
					<dim>12</dim>
				</port>
				<port id="1" precision="FP32">
					<dim>128</dim>
					<dim>128</dim>
					<dim>1</dim>
					<dim>1</dim>
				</port>
			</input>
			<output>
				<port id="2" precision="FP32">
					<dim>-1</dim>
					<dim>128</dim>
					<dim>12</dim>
					<dim>12</dim>
				</port>
			</output>
		</layer>
		<layer id="116" name="Reshape_2744" type="Const" version="opset1">
			<data element_type="f32" shape="1, 128, 1, 1" offset="244996" size="512"/>
			<output>
				<port id="0" precision="FP32">
					<dim>1</dim>
					<dim>128</dim>
					<dim>1</dim>
					<dim>1</dim>
				</port>
			</output>
		</layer>
		<layer id="117" name="339" type="Add" version="opset1">
			<data auto_broadcast="numpy"/>
			<rt_info>
				<attribute name="fused_names" version="0" value="339, Concat_2743, Reshape_2744"/>
			</rt_info>
			<input>
				<port id="0" precision="FP32">
					<dim>-1</dim>
					<dim>128</dim>
					<dim>12</dim>
					<dim>12</dim>
				</port>
				<port id="1" precision="FP32">
					<dim>1</dim>
					<dim>128</dim>
					<dim>1</dim>
					<dim>1</dim>
				</port>
			</input>
			<output>
				<port id="2" precision="FP32" names="339">
					<dim>-1</dim>
					<dim>128</dim>
					<dim>12</dim>
					<dim>12</dim>
				</port>
			</output>
		</layer>
		<layer id="118" name="340" type="Add" version="opset1">
			<data auto_broadcast="numpy"/>
			<rt_info>
				<attribute name="fused_names" version="0" value="340"/>
			</rt_info>
			<input>
				<port id="0" precision="FP32">
					<dim>-1</dim>
					<dim>128</dim>
					<dim>12</dim>
					<dim>12</dim>
				</port>
				<port id="1" precision="FP32">
					<dim>-1</dim>
					<dim>128</dim>
					<dim>12</dim>
					<dim>12</dim>
				</port>
			</input>
			<output>
				<port id="2" precision="FP32" names="340">
					<dim>-1</dim>
					<dim>128</dim>
					<dim>12</dim>
					<dim>12</dim>
				</port>
			</output>
		</layer>
		<layer id="119" name="524" type="Const" version="opset1">
			<data element_type="f32" shape="128, 1, 1" offset="245508" size="512"/>
			<rt_info>
				<attribute name="fused_names" version="0" value="524"/>
			</rt_info>
			<output>
				<port id="0" precision="FP32" names="524">
					<dim>128</dim>
					<dim>1</dim>
					<dim>1</dim>
				</port>
			</output>
		</layer>
		<layer id="120" name="342" type="PReLU" version="opset1">
			<rt_info>
				<attribute name="fused_names" version="0" value="342"/>
			</rt_info>
			<input>
				<port id="0" precision="FP32">
					<dim>-1</dim>
					<dim>128</dim>
					<dim>12</dim>
					<dim>12</dim>
				</port>
				<port id="1" precision="FP32">
					<dim>128</dim>
					<dim>1</dim>
					<dim>1</dim>
				</port>
			</input>
			<output>
				<port id="2" precision="FP32" names="342">
					<dim>-1</dim>
					<dim>128</dim>
					<dim>12</dim>
					<dim>12</dim>
				</port>
			</output>
		</layer>
		<layer id="121" name="Reshape_2883" type="Const" version="opset1">
			<data element_type="f32" shape="128, 1, 1, 3, 3" offset="246020" size="4608"/>
			<output>
				<port id="0" precision="FP32">
					<dim>128</dim>
					<dim>1</dim>
					<dim>1</dim>
					<dim>3</dim>
					<dim>3</dim>
				</port>
			</output>
		</layer>
		<layer id="122" name="GroupConvolution_2949" type="GroupConvolution" version="opset1">
			<data strides="2, 2" pads_begin="0, 0" pads_end="2, 2" dilations="1, 1" auto_pad="explicit"/>
			<rt_info>
				<attribute name="fused_names" version="0" value="366, 368, Concat_2968, GroupConvolution_2949, Reshape_2883, Reshape_2969, Split_2807"/>
			</rt_info>
			<input>
				<port id="0" precision="FP32">
					<dim>-1</dim>
					<dim>128</dim>
					<dim>12</dim>
					<dim>12</dim>
				</port>
				<port id="1" precision="FP32">
					<dim>128</dim>
					<dim>1</dim>
					<dim>1</dim>
					<dim>3</dim>
					<dim>3</dim>
				</port>
			</input>
			<output>
				<port id="2" precision="FP32" names="368">
					<dim>-1</dim>
					<dim>128</dim>
					<dim>6</dim>
					<dim>6</dim>
				</port>
			</output>
		</layer>
		<layer id="123" name="backbone1.13.convs.1.weight" type="Const" version="opset1">
			<data element_type="f32" shape="128, 128, 1, 1" offset="250628" size="65536"/>
			<rt_info>
				<attribute name="fused_names" version="0" value="backbone1.13.convs.1.weight"/>
			</rt_info>
			<output>
				<port id="0" precision="FP32" names="backbone1.13.convs.1.weight">
					<dim>128</dim>
					<dim>128</dim>
					<dim>1</dim>
					<dim>1</dim>
				</port>
			</output>
		</layer>
		<layer id="124" name="Convolution_2997" type="Convolution" version="opset1">
			<data strides="1, 1" dilations="1, 1" pads_begin="0, 0" pads_end="0, 0" auto_pad="explicit"/>
			<rt_info>
				<attribute name="fused_names" version="0" value="Convolution_2997"/>
			</rt_info>
			<input>
				<port id="0" precision="FP32">
					<dim>-1</dim>
					<dim>128</dim>
					<dim>6</dim>
					<dim>6</dim>
				</port>
				<port id="1" precision="FP32">
					<dim>128</dim>
					<dim>128</dim>
					<dim>1</dim>
					<dim>1</dim>
				</port>
			</input>
			<output>
				<port id="2" precision="FP32">
					<dim>-1</dim>
					<dim>128</dim>
					<dim>6</dim>
					<dim>6</dim>
				</port>
			</output>
		</layer>
		<layer id="125" name="Reshape_3017" type="Const" version="opset1">
			<data element_type="f32" shape="1, 128, 1, 1" offset="316164" size="512"/>
			<output>
				<port id="0" precision="FP32">
					<dim>1</dim>
					<dim>128</dim>
					<dim>1</dim>
					<dim>1</dim>
				</port>
			</output>
		</layer>
		<layer id="126" name="369" type="Add" version="opset1">
			<data auto_broadcast="numpy"/>
			<rt_info>
				<attribute name="fused_names" version="0" value="369, Concat_3016, Reshape_3017"/>
			</rt_info>
			<input>
				<port id="0" precision="FP32">
					<dim>-1</dim>
					<dim>128</dim>
					<dim>6</dim>
					<dim>6</dim>
				</port>
				<port id="1" precision="FP32">
					<dim>1</dim>
					<dim>128</dim>
					<dim>1</dim>
					<dim>1</dim>
				</port>
			</input>
			<output>
				<port id="2" precision="FP32" names="369">
					<dim>-1</dim>
					<dim>128</dim>
					<dim>6</dim>
					<dim>6</dim>
				</port>
			</output>
		</layer>
		<layer id="127" name="367" type="MaxPool" version="opset8">
			<data strides="2, 2" dilations="1, 1" pads_begin="0, 0" pads_end="0, 0" kernel="2, 2" rounding_type="floor" auto_pad="explicit" index_element_type="i64" axis="0"/>
			<rt_info>
				<attribute name="fused_names" version="0" value="367"/>
			</rt_info>
			<input>
				<port id="0" precision="FP32">
					<dim>-1</dim>
					<dim>128</dim>
					<dim>12</dim>
					<dim>12</dim>
				</port>
			</input>
			<output>
				<port id="1" precision="FP32" names="367">
					<dim>-1</dim>
					<dim>128</dim>
					<dim>6</dim>
					<dim>6</dim>
				</port>
				<port id="2" precision="I64">
					<dim>-1</dim>
					<dim>128</dim>
					<dim>6</dim>
					<dim>6</dim>
				</port>
			</output>
		</layer>
		<layer id="128" name="370" type="Add" version="opset1">
			<data auto_broadcast="numpy"/>
			<rt_info>
				<attribute name="fused_names" version="0" value="370"/>
			</rt_info>
			<input>
				<port id="0" precision="FP32">
					<dim>-1</dim>
					<dim>128</dim>
					<dim>6</dim>
					<dim>6</dim>
				</port>
				<port id="1" precision="FP32">
					<dim>-1</dim>
					<dim>128</dim>
					<dim>6</dim>
					<dim>6</dim>
				</port>
			</input>
			<output>
				<port id="2" precision="FP32" names="370">
					<dim>-1</dim>
					<dim>128</dim>
					<dim>6</dim>
					<dim>6</dim>
				</port>
			</output>
		</layer>
		<layer id="129" name="530" type="Const" version="opset1">
			<data element_type="f32" shape="128, 1, 1" offset="316676" size="512"/>
			<rt_info>
				<attribute name="fused_names" version="0" value="530"/>
			</rt_info>
			<output>
				<port id="0" precision="FP32" names="530">
					<dim>128</dim>
					<dim>1</dim>
					<dim>1</dim>
				</port>
			</output>
		</layer>
		<layer id="130" name="372" type="PReLU" version="opset1">
			<rt_info>
				<attribute name="fused_names" version="0" value="372"/>
			</rt_info>
			<input>
				<port id="0" precision="FP32">
					<dim>-1</dim>
					<dim>128</dim>
					<dim>6</dim>
					<dim>6</dim>
				</port>
				<port id="1" precision="FP32">
					<dim>128</dim>
					<dim>1</dim>
					<dim>1</dim>
				</port>
			</input>
			<output>
				<port id="2" precision="FP32" names="372">
					<dim>-1</dim>
					<dim>128</dim>
					<dim>6</dim>
					<dim>6</dim>
				</port>
			</output>
		</layer>
		<layer id="131" name="Reshape_3054" type="Const" version="opset1">
			<data element_type="f32" shape="128, 1, 1, 3, 3" offset="317188" size="4608"/>
			<output>
				<port id="0" precision="FP32">
					<dim>128</dim>
					<dim>1</dim>
					<dim>1</dim>
					<dim>3</dim>
					<dim>3</dim>
				</port>
			</output>
		</layer>
		<layer id="132" name="GroupConvolution_3120" type="GroupConvolution" version="opset1">
			<data strides="1, 1" pads_begin="1, 1" pads_end="1, 1" dilations="1, 1" auto_pad="explicit"/>
			<rt_info>
				<attribute name="fused_names" version="0" value="373, Concat_3139, GroupConvolution_3120, Reshape_3054, Reshape_3140"/>
			</rt_info>
			<input>
				<port id="0" precision="FP32">
					<dim>-1</dim>
					<dim>128</dim>
					<dim>6</dim>
					<dim>6</dim>
				</port>
				<port id="1" precision="FP32">
					<dim>128</dim>
					<dim>1</dim>
					<dim>1</dim>
					<dim>3</dim>
					<dim>3</dim>
				</port>
			</input>
			<output>
				<port id="2" precision="FP32" names="373">
					<dim>-1</dim>
					<dim>128</dim>
					<dim>6</dim>
					<dim>6</dim>
				</port>
			</output>
		</layer>
		<layer id="133" name="backbone1.14.convs.1.weight" type="Const" version="opset1">
			<data element_type="f32" shape="128, 128, 1, 1" offset="321796" size="65536"/>
			<rt_info>
				<attribute name="fused_names" version="0" value="backbone1.14.convs.1.weight"/>
			</rt_info>
			<output>
				<port id="0" precision="FP32" names="backbone1.14.convs.1.weight">
					<dim>128</dim>
					<dim>128</dim>
					<dim>1</dim>
					<dim>1</dim>
				</port>
			</output>
		</layer>
		<layer id="134" name="Convolution_3168" type="Convolution" version="opset1">
			<data strides="1, 1" dilations="1, 1" pads_begin="0, 0" pads_end="0, 0" auto_pad="explicit"/>
			<rt_info>
				<attribute name="fused_names" version="0" value="Convolution_3168"/>
			</rt_info>
			<input>
				<port id="0" precision="FP32">
					<dim>-1</dim>
					<dim>128</dim>
					<dim>6</dim>
					<dim>6</dim>
				</port>
				<port id="1" precision="FP32">
					<dim>128</dim>
					<dim>128</dim>
					<dim>1</dim>
					<dim>1</dim>
				</port>
			</input>
			<output>
				<port id="2" precision="FP32">
					<dim>-1</dim>
					<dim>128</dim>
					<dim>6</dim>
					<dim>6</dim>
				</port>
			</output>
		</layer>
		<layer id="135" name="Reshape_3188" type="Const" version="opset1">
			<data element_type="f32" shape="1, 128, 1, 1" offset="387332" size="512"/>
			<output>
				<port id="0" precision="FP32">
					<dim>1</dim>
					<dim>128</dim>
					<dim>1</dim>
					<dim>1</dim>
				</port>
			</output>
		</layer>
		<layer id="136" name="374" type="Add" version="opset1">
			<data auto_broadcast="numpy"/>
			<rt_info>
				<attribute name="fused_names" version="0" value="374, Concat_3187, Reshape_3188"/>
			</rt_info>
			<input>
				<port id="0" precision="FP32">
					<dim>-1</dim>
					<dim>128</dim>
					<dim>6</dim>
					<dim>6</dim>
				</port>
				<port id="1" precision="FP32">
					<dim>1</dim>
					<dim>128</dim>
					<dim>1</dim>
					<dim>1</dim>
				</port>
			</input>
			<output>
				<port id="2" precision="FP32" names="374">
					<dim>-1</dim>
					<dim>128</dim>
					<dim>6</dim>
					<dim>6</dim>
				</port>
			</output>
		</layer>
		<layer id="137" name="375" type="Add" version="opset1">
			<data auto_broadcast="numpy"/>
			<rt_info>
				<attribute name="fused_names" version="0" value="375"/>
			</rt_info>
			<input>
				<port id="0" precision="FP32">
					<dim>-1</dim>
					<dim>128</dim>
					<dim>6</dim>
					<dim>6</dim>
				</port>
				<port id="1" precision="FP32">
					<dim>-1</dim>
					<dim>128</dim>
					<dim>6</dim>
					<dim>6</dim>
				</port>
			</input>
			<output>
				<port id="2" precision="FP32" names="375">
					<dim>-1</dim>
					<dim>128</dim>
					<dim>6</dim>
					<dim>6</dim>
				</port>
			</output>
		</layer>
		<layer id="138" name="531" type="Const" version="opset1">
			<data element_type="f32" shape="128, 1, 1" offset="387844" size="512"/>
			<rt_info>
				<attribute name="fused_names" version="0" value="531"/>
			</rt_info>
			<output>
				<port id="0" precision="FP32" names="531">
					<dim>128</dim>
					<dim>1</dim>
					<dim>1</dim>
				</port>
			</output>
		</layer>
		<layer id="139" name="377" type="PReLU" version="opset1">
			<rt_info>
				<attribute name="fused_names" version="0" value="377"/>
			</rt_info>
			<input>
				<port id="0" precision="FP32">
					<dim>-1</dim>
					<dim>128</dim>
					<dim>6</dim>
					<dim>6</dim>
				</port>
				<port id="1" precision="FP32">
					<dim>128</dim>
					<dim>1</dim>
					<dim>1</dim>
				</port>
			</input>
			<output>
				<port id="2" precision="FP32" names="377">
					<dim>-1</dim>
					<dim>128</dim>
					<dim>6</dim>
					<dim>6</dim>
				</port>
			</output>
		</layer>
		<layer id="140" name="Reshape_3225" type="Const" version="opset1">
			<data element_type="f32" shape="128, 1, 1, 3, 3" offset="388356" size="4608"/>
			<output>
				<port id="0" precision="FP32">
					<dim>128</dim>
					<dim>1</dim>
					<dim>1</dim>
					<dim>3</dim>
					<dim>3</dim>
				</port>
			</output>
		</layer>
		<layer id="141" name="GroupConvolution_3291" type="GroupConvolution" version="opset1">
			<data strides="1, 1" pads_begin="1, 1" pads_end="1, 1" dilations="1, 1" auto_pad="explicit"/>
			<rt_info>
				<attribute name="fused_names" version="0" value="378, Concat_3310, GroupConvolution_3291, Reshape_3225, Reshape_3311"/>
			</rt_info>
			<input>
				<port id="0" precision="FP32">
					<dim>-1</dim>
					<dim>128</dim>
					<dim>6</dim>
					<dim>6</dim>
				</port>
				<port id="1" precision="FP32">
					<dim>128</dim>
					<dim>1</dim>
					<dim>1</dim>
					<dim>3</dim>
					<dim>3</dim>
				</port>
			</input>
			<output>
				<port id="2" precision="FP32" names="378">
					<dim>-1</dim>
					<dim>128</dim>
					<dim>6</dim>
					<dim>6</dim>
				</port>
			</output>
		</layer>
		<layer id="142" name="backbone1.15.convs.1.weight" type="Const" version="opset1">
			<data element_type="f32" shape="128, 128, 1, 1" offset="392964" size="65536"/>
			<rt_info>
				<attribute name="fused_names" version="0" value="backbone1.15.convs.1.weight"/>
			</rt_info>
			<output>
				<port id="0" precision="FP32" names="backbone1.15.convs.1.weight">
					<dim>128</dim>
					<dim>128</dim>
					<dim>1</dim>
					<dim>1</dim>
				</port>
			</output>
		</layer>
		<layer id="143" name="Convolution_3339" type="Convolution" version="opset1">
			<data strides="1, 1" dilations="1, 1" pads_begin="0, 0" pads_end="0, 0" auto_pad="explicit"/>
			<rt_info>
				<attribute name="fused_names" version="0" value="Convolution_3339"/>
			</rt_info>
			<input>
				<port id="0" precision="FP32">
					<dim>-1</dim>
					<dim>128</dim>
					<dim>6</dim>
					<dim>6</dim>
				</port>
				<port id="1" precision="FP32">
					<dim>128</dim>
					<dim>128</dim>
					<dim>1</dim>
					<dim>1</dim>
				</port>
			</input>
			<output>
				<port id="2" precision="FP32">
					<dim>-1</dim>
					<dim>128</dim>
					<dim>6</dim>
					<dim>6</dim>
				</port>
			</output>
		</layer>
		<layer id="144" name="Reshape_3359" type="Const" version="opset1">
			<data element_type="f32" shape="1, 128, 1, 1" offset="458500" size="512"/>
			<output>
				<port id="0" precision="FP32">
					<dim>1</dim>
					<dim>128</dim>
					<dim>1</dim>
					<dim>1</dim>
				</port>
			</output>
		</layer>
		<layer id="145" name="379" type="Add" version="opset1">
			<data auto_broadcast="numpy"/>
			<rt_info>
				<attribute name="fused_names" version="0" value="379, Concat_3358, Reshape_3359"/>
			</rt_info>
			<input>
				<port id="0" precision="FP32">
					<dim>-1</dim>
					<dim>128</dim>
					<dim>6</dim>
					<dim>6</dim>
				</port>
				<port id="1" precision="FP32">
					<dim>1</dim>
					<dim>128</dim>
					<dim>1</dim>
					<dim>1</dim>
				</port>
			</input>
			<output>
				<port id="2" precision="FP32" names="379">
					<dim>-1</dim>
					<dim>128</dim>
					<dim>6</dim>
					<dim>6</dim>
				</port>
			</output>
		</layer>
		<layer id="146" name="380" type="Add" version="opset1">
			<data auto_broadcast="numpy"/>
			<rt_info>
				<attribute name="fused_names" version="0" value="380"/>
			</rt_info>
			<input>
				<port id="0" precision="FP32">
					<dim>-1</dim>
					<dim>128</dim>
					<dim>6</dim>
					<dim>6</dim>
				</port>
				<port id="1" precision="FP32">
					<dim>-1</dim>
					<dim>128</dim>
					<dim>6</dim>
					<dim>6</dim>
				</port>
			</input>
			<output>
				<port id="2" precision="FP32" names="380">
					<dim>-1</dim>
					<dim>128</dim>
					<dim>6</dim>
					<dim>6</dim>
				</port>
			</output>
		</layer>
		<layer id="147" name="532" type="Const" version="opset1">
			<data element_type="f32" shape="128, 1, 1" offset="459012" size="512"/>
			<rt_info>
				<attribute name="fused_names" version="0" value="532"/>
			</rt_info>
			<output>
				<port id="0" precision="FP32" names="532">
					<dim>128</dim>
					<dim>1</dim>
					<dim>1</dim>
				</port>
			</output>
		</layer>
		<layer id="148" name="382" type="PReLU" version="opset1">
			<rt_info>
				<attribute name="fused_names" version="0" value="382"/>
			</rt_info>
			<input>
				<port id="0" precision="FP32">
					<dim>-1</dim>
					<dim>128</dim>
					<dim>6</dim>
					<dim>6</dim>
				</port>
				<port id="1" precision="FP32">
					<dim>128</dim>
					<dim>1</dim>
					<dim>1</dim>
				</port>
			</input>
			<output>
				<port id="2" precision="FP32" names="382">
					<dim>-1</dim>
					<dim>128</dim>
					<dim>6</dim>
					<dim>6</dim>
				</port>
			</output>
		</layer>
		<layer id="149" name="Reshape_4390" type="Const" version="opset1">
			<data element_type="f32" shape="128, 1, 1, 3, 3" offset="459524" size="4608"/>
			<output>
				<port id="0" precision="FP32">
					<dim>128</dim>
					<dim>1</dim>
					<dim>1</dim>
					<dim>3</dim>
					<dim>3</dim>
				</port>
			</output>
		</layer>
		<layer id="150" name="GroupConvolution_4456" type="GroupConvolution" version="opset1">
			<data strides="2, 2" pads_begin="0, 0" pads_end="2, 2" dilations="1, 1" auto_pad="explicit"/>
			<rt_info>
				<attribute name="fused_names" version="0" value="459, 461, Concat_4475, GroupConvolution_4456, Reshape_4390, Reshape_4476, Split_4314"/>
			</rt_info>
			<input>
				<port id="0" precision="FP32">
					<dim>-1</dim>
					<dim>128</dim>
					<dim>6</dim>
					<dim>6</dim>
				</port>
				<port id="1" precision="FP32">
					<dim>128</dim>
					<dim>1</dim>
					<dim>1</dim>
					<dim>3</dim>
					<dim>3</dim>
				</port>
			</input>
			<output>
				<port id="2" precision="FP32" names="461">
					<dim>-1</dim>
					<dim>128</dim>
					<dim>3</dim>
					<dim>3</dim>
				</port>
			</output>
		</layer>
		<layer id="151" name="backbone2b.0.convs.1.weight" type="Const" version="opset1">
			<data element_type="f32" shape="128, 128, 1, 1" offset="464132" size="65536"/>
			<rt_info>
				<attribute name="fused_names" version="0" value="backbone2b.0.convs.1.weight"/>
			</rt_info>
			<output>
				<port id="0" precision="FP32" names="backbone2b.0.convs.1.weight">
					<dim>128</dim>
					<dim>128</dim>
					<dim>1</dim>
					<dim>1</dim>
				</port>
			</output>
		</layer>
		<layer id="152" name="Convolution_4504" type="Convolution" version="opset1">
			<data strides="1, 1" dilations="1, 1" pads_begin="0, 0" pads_end="0, 0" auto_pad="explicit"/>
			<rt_info>
				<attribute name="fused_names" version="0" value="Convolution_4504"/>
			</rt_info>
			<input>
				<port id="0" precision="FP32">
					<dim>-1</dim>
					<dim>128</dim>
					<dim>3</dim>
					<dim>3</dim>
				</port>
				<port id="1" precision="FP32">
					<dim>128</dim>
					<dim>128</dim>
					<dim>1</dim>
					<dim>1</dim>
				</port>
			</input>
			<output>
				<port id="2" precision="FP32">
					<dim>-1</dim>
					<dim>128</dim>
					<dim>3</dim>
					<dim>3</dim>
				</port>
			</output>
		</layer>
		<layer id="153" name="Reshape_4524" type="Const" version="opset1">
			<data element_type="f32" shape="1, 128, 1, 1" offset="529668" size="512"/>
			<output>
				<port id="0" precision="FP32">
					<dim>1</dim>
					<dim>128</dim>
					<dim>1</dim>
					<dim>1</dim>
				</port>
			</output>
		</layer>
		<layer id="154" name="462" type="Add" version="opset1">
			<data auto_broadcast="numpy"/>
			<rt_info>
				<attribute name="fused_names" version="0" value="462, Concat_4523, Reshape_4524"/>
			</rt_info>
			<input>
				<port id="0" precision="FP32">
					<dim>-1</dim>
					<dim>128</dim>
					<dim>3</dim>
					<dim>3</dim>
				</port>
				<port id="1" precision="FP32">
					<dim>1</dim>
					<dim>128</dim>
					<dim>1</dim>
					<dim>1</dim>
				</port>
			</input>
			<output>
				<port id="2" precision="FP32" names="462">
					<dim>-1</dim>
					<dim>128</dim>
					<dim>3</dim>
					<dim>3</dim>
				</port>
			</output>
		</layer>
		<layer id="155" name="460" type="MaxPool" version="opset8">
			<data strides="2, 2" dilations="1, 1" pads_begin="0, 0" pads_end="0, 0" kernel="2, 2" rounding_type="floor" auto_pad="explicit" index_element_type="i64" axis="0"/>
			<rt_info>
				<attribute name="fused_names" version="0" value="460"/>
			</rt_info>
			<input>
				<port id="0" precision="FP32">
					<dim>-1</dim>
					<dim>128</dim>
					<dim>6</dim>
					<dim>6</dim>
				</port>
			</input>
			<output>
				<port id="1" precision="FP32" names="460">
					<dim>-1</dim>
					<dim>128</dim>
					<dim>3</dim>
					<dim>3</dim>
				</port>
				<port id="2" precision="I64">
					<dim>-1</dim>
					<dim>128</dim>
					<dim>3</dim>
					<dim>3</dim>
				</port>
			</output>
		</layer>
		<layer id="156" name="463" type="Add" version="opset1">
			<data auto_broadcast="numpy"/>
			<rt_info>
				<attribute name="fused_names" version="0" value="463"/>
			</rt_info>
			<input>
				<port id="0" precision="FP32">
					<dim>-1</dim>
					<dim>128</dim>
					<dim>3</dim>
					<dim>3</dim>
				</port>
				<port id="1" precision="FP32">
					<dim>-1</dim>
					<dim>128</dim>
					<dim>3</dim>
					<dim>3</dim>
				</port>
			</input>
			<output>
				<port id="2" precision="FP32" names="463">
					<dim>-1</dim>
					<dim>128</dim>
					<dim>3</dim>
					<dim>3</dim>
				</port>
			</output>
		</layer>
		<layer id="157" name="548" type="Const" version="opset1">
			<data element_type="f32" shape="128, 1, 1" offset="530180" size="512"/>
			<rt_info>
				<attribute name="fused_names" version="0" value="548"/>
			</rt_info>
			<output>
				<port id="0" precision="FP32" names="548">
					<dim>128</dim>
					<dim>1</dim>
					<dim>1</dim>
				</port>
			</output>
		</layer>
		<layer id="158" name="465" type="PReLU" version="opset1">
			<rt_info>
				<attribute name="fused_names" version="0" value="465"/>
			</rt_info>
			<input>
				<port id="0" precision="FP32">
					<dim>-1</dim>
					<dim>128</dim>
					<dim>3</dim>
					<dim>3</dim>
				</port>
				<port id="1" precision="FP32">
					<dim>128</dim>
					<dim>1</dim>
					<dim>1</dim>
				</port>
			</input>
			<output>
				<port id="2" precision="FP32" names="465">
					<dim>-1</dim>
					<dim>128</dim>
					<dim>3</dim>
					<dim>3</dim>
				</port>
			</output>
		</layer>
		<layer id="159" name="backbone2b.1.weight" type="Const" version="opset1">
			<data element_type="f32" shape="32, 128, 1, 1" offset="530692" size="16384"/>
			<rt_info>
				<attribute name="fused_names" version="0" value="backbone2b.1.weight"/>
			</rt_info>
			<output>
				<port id="0" precision="FP32" names="backbone2b.1.weight">
					<dim>32</dim>
					<dim>128</dim>
					<dim>1</dim>
					<dim>1</dim>
				</port>
			</output>
		</layer>
		<layer id="160" name="Convolution_4554" type="Convolution" version="opset1">
			<data strides="1, 1" dilations="1, 1" pads_begin="0, 0" pads_end="0, 0" auto_pad="explicit"/>
			<rt_info>
				<attribute name="fused_names" version="0" value="Convolution_4554"/>
			</rt_info>
			<input>
				<port id="0" precision="FP32">
					<dim>-1</dim>
					<dim>128</dim>
					<dim>3</dim>
					<dim>3</dim>
				</port>
				<port id="1" precision="FP32">
					<dim>32</dim>
					<dim>128</dim>
					<dim>1</dim>
					<dim>1</dim>
				</port>
			</input>
			<output>
				<port id="2" precision="FP32">
					<dim>-1</dim>
					<dim>32</dim>
					<dim>3</dim>
					<dim>3</dim>
				</port>
			</output>
		</layer>
		<layer id="161" name="Reshape_4574" type="Const" version="opset1">
			<data element_type="f32" shape="1, 32, 1, 1" offset="547076" size="128"/>
			<output>
				<port id="0" precision="FP32">
					<dim>1</dim>
					<dim>32</dim>
					<dim>1</dim>
					<dim>1</dim>
				</port>
			</output>
		</layer>
		<layer id="162" name="466" type="Add" version="opset1">
			<data auto_broadcast="numpy"/>
			<rt_info>
				<attribute name="fused_names" version="0" value="466, Concat_4573, Reshape_4574"/>
			</rt_info>
			<input>
				<port id="0" precision="FP32">
					<dim>-1</dim>
					<dim>32</dim>
					<dim>3</dim>
					<dim>3</dim>
				</port>
				<port id="1" precision="FP32">
					<dim>1</dim>
					<dim>32</dim>
					<dim>1</dim>
					<dim>1</dim>
				</port>
			</input>
			<output>
				<port id="2" precision="FP32" names="466">
					<dim>-1</dim>
					<dim>32</dim>
					<dim>3</dim>
					<dim>3</dim>
				</port>
			</output>
		</layer>
		<layer id="163" name="549" type="Const" version="opset1">
			<data element_type="f32" shape="32, 1, 1" offset="547204" size="128"/>
			<rt_info>
				<attribute name="fused_names" version="0" value="549"/>
			</rt_info>
			<output>
				<port id="0" precision="FP32" names="549">
					<dim>32</dim>
					<dim>1</dim>
					<dim>1</dim>
				</port>
			</output>
		</layer>
		<layer id="164" name="468" type="PReLU" version="opset1">
			<rt_info>
				<attribute name="fused_names" version="0" value="468"/>
			</rt_info>
			<input>
				<port id="0" precision="FP32">
					<dim>-1</dim>
					<dim>32</dim>
					<dim>3</dim>
					<dim>3</dim>
				</port>
				<port id="1" precision="FP32">
					<dim>32</dim>
					<dim>1</dim>
					<dim>1</dim>
				</port>
			</input>
			<output>
				<port id="2" precision="FP32" names="468">
					<dim>-1</dim>
					<dim>32</dim>
					<dim>3</dim>
					<dim>3</dim>
				</port>
			</output>
		</layer>
		<layer id="165" name="Reshape_4610" type="Const" version="opset1">
			<data element_type="f32" shape="32, 1, 1, 3, 3" offset="547332" size="1152"/>
			<output>
				<port id="0" precision="FP32">
					<dim>32</dim>
					<dim>1</dim>
					<dim>1</dim>
					<dim>3</dim>
					<dim>3</dim>
				</port>
			</output>
		</layer>
		<layer id="166" name="GroupConvolution_4676" type="GroupConvolution" version="opset1">
			<data strides="1, 1" pads_begin="1, 1" pads_end="1, 1" dilations="1, 1" auto_pad="explicit"/>
			<rt_info>
				<attribute name="fused_names" version="0" value="469, Concat_4695, GroupConvolution_4676, Reshape_4610, Reshape_4696"/>
			</rt_info>
			<input>
				<port id="0" precision="FP32">
					<dim>-1</dim>
					<dim>32</dim>
					<dim>3</dim>
					<dim>3</dim>
				</port>
				<port id="1" precision="FP32">
					<dim>32</dim>
					<dim>1</dim>
					<dim>1</dim>
					<dim>3</dim>
					<dim>3</dim>
				</port>
			</input>
			<output>
				<port id="2" precision="FP32" names="469">
					<dim>-1</dim>
					<dim>32</dim>
					<dim>3</dim>
					<dim>3</dim>
				</port>
			</output>
		</layer>
		<layer id="167" name="backbone2b.3.convs.1.weight" type="Const" version="opset1">
			<data element_type="f32" shape="32, 32, 1, 1" offset="548484" size="4096"/>
			<rt_info>
				<attribute name="fused_names" version="0" value="backbone2b.3.convs.1.weight"/>
			</rt_info>
			<output>
				<port id="0" precision="FP32" names="backbone2b.3.convs.1.weight">
					<dim>32</dim>
					<dim>32</dim>
					<dim>1</dim>
					<dim>1</dim>
				</port>
			</output>
		</layer>
		<layer id="168" name="Convolution_4724" type="Convolution" version="opset1">
			<data strides="1, 1" dilations="1, 1" pads_begin="0, 0" pads_end="0, 0" auto_pad="explicit"/>
			<rt_info>
				<attribute name="fused_names" version="0" value="Convolution_4724"/>
			</rt_info>
			<input>
				<port id="0" precision="FP32">
					<dim>-1</dim>
					<dim>32</dim>
					<dim>3</dim>
					<dim>3</dim>
				</port>
				<port id="1" precision="FP32">
					<dim>32</dim>
					<dim>32</dim>
					<dim>1</dim>
					<dim>1</dim>
				</port>
			</input>
			<output>
				<port id="2" precision="FP32">
					<dim>-1</dim>
					<dim>32</dim>
					<dim>3</dim>
					<dim>3</dim>
				</port>
			</output>
		</layer>
		<layer id="169" name="Reshape_4744" type="Const" version="opset1">
			<data element_type="f32" shape="1, 32, 1, 1" offset="552580" size="128"/>
			<output>
				<port id="0" precision="FP32">
					<dim>1</dim>
					<dim>32</dim>
					<dim>1</dim>
					<dim>1</dim>
				</port>
			</output>
		</layer>
		<layer id="170" name="470" type="Add" version="opset1">
			<data auto_broadcast="numpy"/>
			<rt_info>
				<attribute name="fused_names" version="0" value="470, Concat_4743, Reshape_4744"/>
			</rt_info>
			<input>
				<port id="0" precision="FP32">
					<dim>-1</dim>
					<dim>32</dim>
					<dim>3</dim>
					<dim>3</dim>
				</port>
				<port id="1" precision="FP32">
					<dim>1</dim>
					<dim>32</dim>
					<dim>1</dim>
					<dim>1</dim>
				</port>
			</input>
			<output>
				<port id="2" precision="FP32" names="470">
					<dim>-1</dim>
					<dim>32</dim>
					<dim>3</dim>
					<dim>3</dim>
				</port>
			</output>
		</layer>
		<layer id="171" name="471" type="Add" version="opset1">
			<data auto_broadcast="numpy"/>
			<rt_info>
				<attribute name="fused_names" version="0" value="471"/>
			</rt_info>
			<input>
				<port id="0" precision="FP32">
					<dim>-1</dim>
					<dim>32</dim>
					<dim>3</dim>
					<dim>3</dim>
				</port>
				<port id="1" precision="FP32">
					<dim>-1</dim>
					<dim>32</dim>
					<dim>3</dim>
					<dim>3</dim>
				</port>
			</input>
			<output>
				<port id="2" precision="FP32" names="471">
					<dim>-1</dim>
					<dim>32</dim>
					<dim>3</dim>
					<dim>3</dim>
				</port>
			</output>
		</layer>
		<layer id="172" name="550" type="Const" version="opset1">
			<data element_type="f32" shape="32, 1, 1" offset="552708" size="128"/>
			<rt_info>
				<attribute name="fused_names" version="0" value="550"/>
			</rt_info>
			<output>
				<port id="0" precision="FP32" names="550">
					<dim>32</dim>
					<dim>1</dim>
					<dim>1</dim>
				</port>
			</output>
		</layer>
		<layer id="173" name="473" type="PReLU" version="opset1">
			<rt_info>
				<attribute name="fused_names" version="0" value="473"/>
			</rt_info>
			<input>
				<port id="0" precision="FP32">
					<dim>-1</dim>
					<dim>32</dim>
					<dim>3</dim>
					<dim>3</dim>
				</port>
				<port id="1" precision="FP32">
					<dim>32</dim>
					<dim>1</dim>
					<dim>1</dim>
				</port>
			</input>
			<output>
				<port id="2" precision="FP32" names="473">
					<dim>-1</dim>
					<dim>32</dim>
					<dim>3</dim>
					<dim>3</dim>
				</port>
			</output>
		</layer>
		<layer id="174" name="backbone2b.4.weight" type="Const" version="opset1">
			<data element_type="f32" shape="1, 32, 3, 3" offset="552836" size="1152"/>
			<rt_info>
				<attribute name="fused_names" version="0" value="backbone2b.4.weight"/>
			</rt_info>
			<output>
				<port id="0" precision="FP32" names="backbone2b.4.weight">
					<dim>1</dim>
					<dim>32</dim>
					<dim>3</dim>
					<dim>3</dim>
				</port>
			</output>
		</layer>
		<layer id="175" name="Convolution_4774" type="Convolution" version="opset1">
			<data strides="1, 1" dilations="1, 1" pads_begin="0, 0" pads_end="0, 0" auto_pad="explicit"/>
			<rt_info>
				<attribute name="fused_names" version="0" value="Convolution_4774"/>
			</rt_info>
			<input>
				<port id="0" precision="FP32">
					<dim>-1</dim>
					<dim>32</dim>
					<dim>3</dim>
					<dim>3</dim>
				</port>
				<port id="1" precision="FP32">
					<dim>1</dim>
					<dim>32</dim>
					<dim>3</dim>
					<dim>3</dim>
				</port>
			</input>
			<output>
				<port id="2" precision="FP32">
					<dim>-1</dim>
					<dim>1</dim>
					<dim>1</dim>
					<dim>1</dim>
				</port>
			</output>
		</layer>
		<layer id="176" name="Reshape_4794" type="Const" version="opset1">
			<data element_type="f32" shape="1, 1, 1, 1" offset="553988" size="4"/>
			<output>
				<port id="0" precision="FP32">
					<dim>1</dim>
					<dim>1</dim>
					<dim>1</dim>
					<dim>1</dim>
				</port>
			</output>
		</layer>
		<layer id="177" name="474" type="Add" version="opset1">
			<data auto_broadcast="numpy"/>
			<rt_info>
				<attribute name="fused_names" version="0" value="474, Concat_4793, Reshape_4794"/>
			</rt_info>
			<input>
				<port id="0" precision="FP32">
					<dim>-1</dim>
					<dim>1</dim>
					<dim>1</dim>
					<dim>1</dim>
				</port>
				<port id="1" precision="FP32">
					<dim>1</dim>
					<dim>1</dim>
					<dim>1</dim>
					<dim>1</dim>
				</port>
			</input>
			<output>
				<port id="2" precision="FP32" names="474">
					<dim>-1</dim>
					<dim>1</dim>
					<dim>1</dim>
					<dim>1</dim>
				</port>
			</output>
		</layer>
		<layer id="178" name="475" type="Sigmoid" version="opset1">
			<rt_info>
				<attribute name="fused_names" version="0" value="475"/>
			</rt_info>
			<input>
				<port id="0" precision="FP32">
					<dim>-1</dim>
					<dim>1</dim>
					<dim>1</dim>
					<dim>1</dim>
				</port>
			</input>
			<output>
				<port id="1" precision="FP32" names="475">
					<dim>-1</dim>
					<dim>1</dim>
					<dim>1</dim>
					<dim>1</dim>
				</port>
			</output>
		</layer>
		<layer id="179" name="476" type="Const" version="opset1">
			<data element_type="i64" shape="1" offset="553992" size="8"/>
			<rt_info>
				<attribute name="fused_names" version="0" value="476"/>
			</rt_info>
			<output>
				<port id="0" precision="I64" names="476">
					<dim>1</dim>
				</port>
			</output>
		</layer>
		<layer id="180" name="477" type="Reshape" version="opset1">
			<data special_zero="true"/>
			<rt_info>
				<attribute name="fused_names" version="0" value="477"/>
			</rt_info>
			<input>
				<port id="0" precision="FP32">
					<dim>-1</dim>
					<dim>1</dim>
					<dim>1</dim>
					<dim>1</dim>
				</port>
				<port id="1" precision="I64">
					<dim>1</dim>
				</port>
			</input>
			<output>
				<port id="2" precision="FP32" names="477">
					<dim>-1</dim>
				</port>
			</output>
		</layer>
		<layer id="182" name="Reshape_3498" type="Const" version="opset1">
			<data element_type="f32" shape="128, 1, 1, 3, 3" offset="554000" size="4608"/>
			<output>
				<port id="0" precision="FP32">
					<dim>128</dim>
					<dim>1</dim>
					<dim>1</dim>
					<dim>3</dim>
					<dim>3</dim>
				</port>
			</output>
		</layer>
		<layer id="183" name="GroupConvolution_3564" type="GroupConvolution" version="opset1">
			<data strides="2, 2" pads_begin="0, 0" pads_end="2, 2" dilations="1, 1" auto_pad="explicit"/>
			<rt_info>
				<attribute name="fused_names" version="0" value="406, 408, Concat_3583, GroupConvolution_3564, Reshape_3498, Reshape_3584, Split_3422"/>
			</rt_info>
			<input>
				<port id="0" precision="FP32">
					<dim>-1</dim>
					<dim>128</dim>
					<dim>6</dim>
					<dim>6</dim>
				</port>
				<port id="1" precision="FP32">
					<dim>128</dim>
					<dim>1</dim>
					<dim>1</dim>
					<dim>3</dim>
					<dim>3</dim>
				</port>
			</input>
			<output>
				<port id="2" precision="FP32" names="408">
					<dim>-1</dim>
					<dim>128</dim>
					<dim>3</dim>
					<dim>3</dim>
				</port>
			</output>
		</layer>
		<layer id="184" name="backbone2a.0.convs.1.weight" type="Const" version="opset1">
			<data element_type="f32" shape="128, 128, 1, 1" offset="558608" size="65536"/>
			<rt_info>
				<attribute name="fused_names" version="0" value="backbone2a.0.convs.1.weight"/>
			</rt_info>
			<output>
				<port id="0" precision="FP32" names="backbone2a.0.convs.1.weight">
					<dim>128</dim>
					<dim>128</dim>
					<dim>1</dim>
					<dim>1</dim>
				</port>
			</output>
		</layer>
		<layer id="185" name="Convolution_3612" type="Convolution" version="opset1">
			<data strides="1, 1" dilations="1, 1" pads_begin="0, 0" pads_end="0, 0" auto_pad="explicit"/>
			<rt_info>
				<attribute name="fused_names" version="0" value="Convolution_3612"/>
			</rt_info>
			<input>
				<port id="0" precision="FP32">
					<dim>-1</dim>
					<dim>128</dim>
					<dim>3</dim>
					<dim>3</dim>
				</port>
				<port id="1" precision="FP32">
					<dim>128</dim>
					<dim>128</dim>
					<dim>1</dim>
					<dim>1</dim>
				</port>
			</input>
			<output>
				<port id="2" precision="FP32">
					<dim>-1</dim>
					<dim>128</dim>
					<dim>3</dim>
					<dim>3</dim>
				</port>
			</output>
		</layer>
		<layer id="186" name="Reshape_3632" type="Const" version="opset1">
			<data element_type="f32" shape="1, 128, 1, 1" offset="624144" size="512"/>
			<output>
				<port id="0" precision="FP32">
					<dim>1</dim>
					<dim>128</dim>
					<dim>1</dim>
					<dim>1</dim>
				</port>
			</output>
		</layer>
		<layer id="187" name="409" type="Add" version="opset1">
			<data auto_broadcast="numpy"/>
			<rt_info>
				<attribute name="fused_names" version="0" value="409, Concat_3631, Reshape_3632"/>
			</rt_info>
			<input>
				<port id="0" precision="FP32">
					<dim>-1</dim>
					<dim>128</dim>
					<dim>3</dim>
					<dim>3</dim>
				</port>
				<port id="1" precision="FP32">
					<dim>1</dim>
					<dim>128</dim>
					<dim>1</dim>
					<dim>1</dim>
				</port>
			</input>
			<output>
				<port id="2" precision="FP32" names="409">
					<dim>-1</dim>
					<dim>128</dim>
					<dim>3</dim>
					<dim>3</dim>
				</port>
			</output>
		</layer>
		<layer id="188" name="407" type="MaxPool" version="opset8">
			<data strides="2, 2" dilations="1, 1" pads_begin="0, 0" pads_end="0, 0" kernel="2, 2" rounding_type="floor" auto_pad="explicit" index_element_type="i64" axis="0"/>
			<rt_info>
				<attribute name="fused_names" version="0" value="407"/>
			</rt_info>
			<input>
				<port id="0" precision="FP32">
					<dim>-1</dim>
					<dim>128</dim>
					<dim>6</dim>
					<dim>6</dim>
				</port>
			</input>
			<output>
				<port id="1" precision="FP32" names="407">
					<dim>-1</dim>
					<dim>128</dim>
					<dim>3</dim>
					<dim>3</dim>
				</port>
				<port id="2" precision="I64">
					<dim>-1</dim>
					<dim>128</dim>
					<dim>3</dim>
					<dim>3</dim>
				</port>
			</output>
		</layer>
		<layer id="189" name="410" type="Add" version="opset1">
			<data auto_broadcast="numpy"/>
			<rt_info>
				<attribute name="fused_names" version="0" value="410"/>
			</rt_info>
			<input>
				<port id="0" precision="FP32">
					<dim>-1</dim>
					<dim>128</dim>
					<dim>3</dim>
					<dim>3</dim>
				</port>
				<port id="1" precision="FP32">
					<dim>-1</dim>
					<dim>128</dim>
					<dim>3</dim>
					<dim>3</dim>
				</port>
			</input>
			<output>
				<port id="2" precision="FP32" names="410">
					<dim>-1</dim>
					<dim>128</dim>
					<dim>3</dim>
					<dim>3</dim>
				</port>
			</output>
		</layer>
		<layer id="190" name="538" type="Const" version="opset1">
			<data element_type="f32" shape="128, 1, 1" offset="624656" size="512"/>
			<rt_info>
				<attribute name="fused_names" version="0" value="538"/>
			</rt_info>
			<output>
				<port id="0" precision="FP32" names="538">
					<dim>128</dim>
					<dim>1</dim>
					<dim>1</dim>
				</port>
			</output>
		</layer>
		<layer id="191" name="412" type="PReLU" version="opset1">
			<rt_info>
				<attribute name="fused_names" version="0" value="412"/>
			</rt_info>
			<input>
				<port id="0" precision="FP32">
					<dim>-1</dim>
					<dim>128</dim>
					<dim>3</dim>
					<dim>3</dim>
				</port>
				<port id="1" precision="FP32">
					<dim>128</dim>
					<dim>1</dim>
					<dim>1</dim>
				</port>
			</input>
			<output>
				<port id="2" precision="FP32" names="412">
					<dim>-1</dim>
					<dim>128</dim>
					<dim>3</dim>
					<dim>3</dim>
				</port>
			</output>
		</layer>
		<layer id="192" name="Reshape_3669" type="Const" version="opset1">
			<data element_type="f32" shape="128, 1, 1, 3, 3" offset="625168" size="4608"/>
			<output>
				<port id="0" precision="FP32">
					<dim>128</dim>
					<dim>1</dim>
					<dim>1</dim>
					<dim>3</dim>
					<dim>3</dim>
				</port>
			</output>
		</layer>
		<layer id="193" name="GroupConvolution_3735" type="GroupConvolution" version="opset1">
			<data strides="1, 1" pads_begin="1, 1" pads_end="1, 1" dilations="1, 1" auto_pad="explicit"/>
			<rt_info>
				<attribute name="fused_names" version="0" value="413, Concat_3754, GroupConvolution_3735, Reshape_3669, Reshape_3755"/>
			</rt_info>
			<input>
				<port id="0" precision="FP32">
					<dim>-1</dim>
					<dim>128</dim>
					<dim>3</dim>
					<dim>3</dim>
				</port>
				<port id="1" precision="FP32">
					<dim>128</dim>
					<dim>1</dim>
					<dim>1</dim>
					<dim>3</dim>
					<dim>3</dim>
				</port>
			</input>
			<output>
				<port id="2" precision="FP32" names="413">
					<dim>-1</dim>
					<dim>128</dim>
					<dim>3</dim>
					<dim>3</dim>
				</port>
			</output>
		</layer>
		<layer id="194" name="backbone2a.1.convs.1.weight" type="Const" version="opset1">
			<data element_type="f32" shape="128, 128, 1, 1" offset="629776" size="65536"/>
			<rt_info>
				<attribute name="fused_names" version="0" value="backbone2a.1.convs.1.weight"/>
			</rt_info>
			<output>
				<port id="0" precision="FP32" names="backbone2a.1.convs.1.weight">
					<dim>128</dim>
					<dim>128</dim>
					<dim>1</dim>
					<dim>1</dim>
				</port>
			</output>
		</layer>
		<layer id="195" name="Convolution_3783" type="Convolution" version="opset1">
			<data strides="1, 1" dilations="1, 1" pads_begin="0, 0" pads_end="0, 0" auto_pad="explicit"/>
			<rt_info>
				<attribute name="fused_names" version="0" value="Convolution_3783"/>
			</rt_info>
			<input>
				<port id="0" precision="FP32">
					<dim>-1</dim>
					<dim>128</dim>
					<dim>3</dim>
					<dim>3</dim>
				</port>
				<port id="1" precision="FP32">
					<dim>128</dim>
					<dim>128</dim>
					<dim>1</dim>
					<dim>1</dim>
				</port>
			</input>
			<output>
				<port id="2" precision="FP32">
					<dim>-1</dim>
					<dim>128</dim>
					<dim>3</dim>
					<dim>3</dim>
				</port>
			</output>
		</layer>
		<layer id="196" name="Reshape_3803" type="Const" version="opset1">
			<data element_type="f32" shape="1, 128, 1, 1" offset="695312" size="512"/>
			<output>
				<port id="0" precision="FP32">
					<dim>1</dim>
					<dim>128</dim>
					<dim>1</dim>
					<dim>1</dim>
				</port>
			</output>
		</layer>
		<layer id="197" name="414" type="Add" version="opset1">
			<data auto_broadcast="numpy"/>
			<rt_info>
				<attribute name="fused_names" version="0" value="414, Concat_3802, Reshape_3803"/>
			</rt_info>
			<input>
				<port id="0" precision="FP32">
					<dim>-1</dim>
					<dim>128</dim>
					<dim>3</dim>
					<dim>3</dim>
				</port>
				<port id="1" precision="FP32">
					<dim>1</dim>
					<dim>128</dim>
					<dim>1</dim>
					<dim>1</dim>
				</port>
			</input>
			<output>
				<port id="2" precision="FP32" names="414">
					<dim>-1</dim>
					<dim>128</dim>
					<dim>3</dim>
					<dim>3</dim>
				</port>
			</output>
		</layer>
		<layer id="198" name="415" type="Add" version="opset1">
			<data auto_broadcast="numpy"/>
			<rt_info>
				<attribute name="fused_names" version="0" value="415"/>
			</rt_info>
			<input>
				<port id="0" precision="FP32">
					<dim>-1</dim>
					<dim>128</dim>
					<dim>3</dim>
					<dim>3</dim>
				</port>
				<port id="1" precision="FP32">
					<dim>-1</dim>
					<dim>128</dim>
					<dim>3</dim>
					<dim>3</dim>
				</port>
			</input>
			<output>
				<port id="2" precision="FP32" names="415">
					<dim>-1</dim>
					<dim>128</dim>
					<dim>3</dim>
					<dim>3</dim>
				</port>
			</output>
		</layer>
		<layer id="199" name="539" type="Const" version="opset1">
			<data element_type="f32" shape="128, 1, 1" offset="695824" size="512"/>
			<rt_info>
				<attribute name="fused_names" version="0" value="539"/>
			</rt_info>
			<output>
				<port id="0" precision="FP32" names="539">
					<dim>128</dim>
					<dim>1</dim>
					<dim>1</dim>
				</port>
			</output>
		</layer>
		<layer id="200" name="417" type="PReLU" version="opset1">
			<rt_info>
				<attribute name="fused_names" version="0" value="417"/>
			</rt_info>
			<input>
				<port id="0" precision="FP32">
					<dim>-1</dim>
					<dim>128</dim>
					<dim>3</dim>
					<dim>3</dim>
				</port>
				<port id="1" precision="FP32">
					<dim>128</dim>
					<dim>1</dim>
					<dim>1</dim>
				</port>
			</input>
			<output>
				<port id="2" precision="FP32" names="417">
					<dim>-1</dim>
					<dim>128</dim>
					<dim>3</dim>
					<dim>3</dim>
				</port>
			</output>
		</layer>
		<layer id="201" name="Reshape_3840" type="Const" version="opset1">
			<data element_type="f32" shape="128, 1, 1, 3, 3" offset="696336" size="4608"/>
			<output>
				<port id="0" precision="FP32">
					<dim>128</dim>
					<dim>1</dim>
					<dim>1</dim>
					<dim>3</dim>
					<dim>3</dim>
				</port>
			</output>
		</layer>
		<layer id="202" name="GroupConvolution_3906" type="GroupConvolution" version="opset1">
			<data strides="1, 1" pads_begin="1, 1" pads_end="1, 1" dilations="1, 1" auto_pad="explicit"/>
			<rt_info>
				<attribute name="fused_names" version="0" value="418, Concat_3925, GroupConvolution_3906, Reshape_3840, Reshape_3926"/>
			</rt_info>
			<input>
				<port id="0" precision="FP32">
					<dim>-1</dim>
					<dim>128</dim>
					<dim>3</dim>
					<dim>3</dim>
				</port>
				<port id="1" precision="FP32">
					<dim>128</dim>
					<dim>1</dim>
					<dim>1</dim>
					<dim>3</dim>
					<dim>3</dim>
				</port>
			</input>
			<output>
				<port id="2" precision="FP32" names="418">
					<dim>-1</dim>
					<dim>128</dim>
					<dim>3</dim>
					<dim>3</dim>
				</port>
			</output>
		</layer>
		<layer id="203" name="backbone2a.2.convs.1.weight" type="Const" version="opset1">
			<data element_type="f32" shape="128, 128, 1, 1" offset="700944" size="65536"/>
			<rt_info>
				<attribute name="fused_names" version="0" value="backbone2a.2.convs.1.weight"/>
			</rt_info>
			<output>
				<port id="0" precision="FP32" names="backbone2a.2.convs.1.weight">
					<dim>128</dim>
					<dim>128</dim>
					<dim>1</dim>
					<dim>1</dim>
				</port>
			</output>
		</layer>
		<layer id="204" name="Convolution_3954" type="Convolution" version="opset1">
			<data strides="1, 1" dilations="1, 1" pads_begin="0, 0" pads_end="0, 0" auto_pad="explicit"/>
			<rt_info>
				<attribute name="fused_names" version="0" value="Convolution_3954"/>
			</rt_info>
			<input>
				<port id="0" precision="FP32">
					<dim>-1</dim>
					<dim>128</dim>
					<dim>3</dim>
					<dim>3</dim>
				</port>
				<port id="1" precision="FP32">
					<dim>128</dim>
					<dim>128</dim>
					<dim>1</dim>
					<dim>1</dim>
				</port>
			</input>
			<output>
				<port id="2" precision="FP32">
					<dim>-1</dim>
					<dim>128</dim>
					<dim>3</dim>
					<dim>3</dim>
				</port>
			</output>
		</layer>
		<layer id="205" name="Reshape_3974" type="Const" version="opset1">
			<data element_type="f32" shape="1, 128, 1, 1" offset="766480" size="512"/>
			<output>
				<port id="0" precision="FP32">
					<dim>1</dim>
					<dim>128</dim>
					<dim>1</dim>
					<dim>1</dim>
				</port>
			</output>
		</layer>
		<layer id="206" name="419" type="Add" version="opset1">
			<data auto_broadcast="numpy"/>
			<rt_info>
				<attribute name="fused_names" version="0" value="419, Concat_3973, Reshape_3974"/>
			</rt_info>
			<input>
				<port id="0" precision="FP32">
					<dim>-1</dim>
					<dim>128</dim>
					<dim>3</dim>
					<dim>3</dim>
				</port>
				<port id="1" precision="FP32">
					<dim>1</dim>
					<dim>128</dim>
					<dim>1</dim>
					<dim>1</dim>
				</port>
			</input>
			<output>
				<port id="2" precision="FP32" names="419">
					<dim>-1</dim>
					<dim>128</dim>
					<dim>3</dim>
					<dim>3</dim>
				</port>
			</output>
		</layer>
		<layer id="207" name="420" type="Add" version="opset1">
			<data auto_broadcast="numpy"/>
			<rt_info>
				<attribute name="fused_names" version="0" value="420"/>
			</rt_info>
			<input>
				<port id="0" precision="FP32">
					<dim>-1</dim>
					<dim>128</dim>
					<dim>3</dim>
					<dim>3</dim>
				</port>
				<port id="1" precision="FP32">
					<dim>-1</dim>
					<dim>128</dim>
					<dim>3</dim>
					<dim>3</dim>
				</port>
			</input>
			<output>
				<port id="2" precision="FP32" names="420">
					<dim>-1</dim>
					<dim>128</dim>
					<dim>3</dim>
					<dim>3</dim>
				</port>
			</output>
		</layer>
		<layer id="208" name="540" type="Const" version="opset1">
			<data element_type="f32" shape="128, 1, 1" offset="766992" size="512"/>
			<rt_info>
				<attribute name="fused_names" version="0" value="540"/>
			</rt_info>
			<output>
				<port id="0" precision="FP32" names="540">
					<dim>128</dim>
					<dim>1</dim>
					<dim>1</dim>
				</port>
			</output>
		</layer>
		<layer id="209" name="422" type="PReLU" version="opset1">
			<rt_info>
				<attribute name="fused_names" version="0" value="422"/>
			</rt_info>
			<input>
				<port id="0" precision="FP32">
					<dim>-1</dim>
					<dim>128</dim>
					<dim>3</dim>
					<dim>3</dim>
				</port>
				<port id="1" precision="FP32">
					<dim>128</dim>
					<dim>1</dim>
					<dim>1</dim>
				</port>
			</input>
			<output>
				<port id="2" precision="FP32" names="422">
					<dim>-1</dim>
					<dim>128</dim>
					<dim>3</dim>
					<dim>3</dim>
				</port>
			</output>
		</layer>
		<layer id="210" name="backbone2a.3.weight" type="Const" version="opset1">
			<data element_type="f32" shape="32, 128, 1, 1" offset="767504" size="16384"/>
			<rt_info>
				<attribute name="fused_names" version="0" value="backbone2a.3.weight"/>
			</rt_info>
			<output>
				<port id="0" precision="FP32" names="backbone2a.3.weight">
					<dim>32</dim>
					<dim>128</dim>
					<dim>1</dim>
					<dim>1</dim>
				</port>
			</output>
		</layer>
		<layer id="211" name="Convolution_4004" type="Convolution" version="opset1">
			<data strides="1, 1" dilations="1, 1" pads_begin="0, 0" pads_end="0, 0" auto_pad="explicit"/>
			<rt_info>
				<attribute name="fused_names" version="0" value="Convolution_4004"/>
			</rt_info>
			<input>
				<port id="0" precision="FP32">
					<dim>-1</dim>
					<dim>128</dim>
					<dim>3</dim>
					<dim>3</dim>
				</port>
				<port id="1" precision="FP32">
					<dim>32</dim>
					<dim>128</dim>
					<dim>1</dim>
					<dim>1</dim>
				</port>
			</input>
			<output>
				<port id="2" precision="FP32">
					<dim>-1</dim>
					<dim>32</dim>
					<dim>3</dim>
					<dim>3</dim>
				</port>
			</output>
		</layer>
		<layer id="212" name="Reshape_4024" type="Const" version="opset1">
			<data element_type="f32" shape="1, 32, 1, 1" offset="783888" size="128"/>
			<output>
				<port id="0" precision="FP32">
					<dim>1</dim>
					<dim>32</dim>
					<dim>1</dim>
					<dim>1</dim>
				</port>
			</output>
		</layer>
		<layer id="213" name="423" type="Add" version="opset1">
			<data auto_broadcast="numpy"/>
			<rt_info>
				<attribute name="fused_names" version="0" value="423, Concat_4023, Reshape_4024"/>
			</rt_info>
			<input>
				<port id="0" precision="FP32">
					<dim>-1</dim>
					<dim>32</dim>
					<dim>3</dim>
					<dim>3</dim>
				</port>
				<port id="1" precision="FP32">
					<dim>1</dim>
					<dim>32</dim>
					<dim>1</dim>
					<dim>1</dim>
				</port>
			</input>
			<output>
				<port id="2" precision="FP32" names="423">
					<dim>-1</dim>
					<dim>32</dim>
					<dim>3</dim>
					<dim>3</dim>
				</port>
			</output>
		</layer>
		<layer id="214" name="541" type="Const" version="opset1">
			<data element_type="f32" shape="32, 1, 1" offset="784016" size="128"/>
			<rt_info>
				<attribute name="fused_names" version="0" value="541"/>
			</rt_info>
			<output>
				<port id="0" precision="FP32" names="541">
					<dim>32</dim>
					<dim>1</dim>
					<dim>1</dim>
				</port>
			</output>
		</layer>
		<layer id="215" name="425" type="PReLU" version="opset1">
			<rt_info>
				<attribute name="fused_names" version="0" value="425"/>
			</rt_info>
			<input>
				<port id="0" precision="FP32">
					<dim>-1</dim>
					<dim>32</dim>
					<dim>3</dim>
					<dim>3</dim>
				</port>
				<port id="1" precision="FP32">
					<dim>32</dim>
					<dim>1</dim>
					<dim>1</dim>
				</port>
			</input>
			<output>
				<port id="2" precision="FP32" names="425">
					<dim>-1</dim>
					<dim>32</dim>
					<dim>3</dim>
					<dim>3</dim>
				</port>
			</output>
		</layer>
		<layer id="216" name="Reshape_4060" type="Const" version="opset1">
			<data element_type="f32" shape="32, 1, 1, 3, 3" offset="784144" size="1152"/>
			<output>
				<port id="0" precision="FP32">
					<dim>32</dim>
					<dim>1</dim>
					<dim>1</dim>
					<dim>3</dim>
					<dim>3</dim>
				</port>
			</output>
		</layer>
		<layer id="217" name="GroupConvolution_4126" type="GroupConvolution" version="opset1">
			<data strides="1, 1" pads_begin="1, 1" pads_end="1, 1" dilations="1, 1" auto_pad="explicit"/>
			<rt_info>
				<attribute name="fused_names" version="0" value="426, Concat_4145, GroupConvolution_4126, Reshape_4060, Reshape_4146"/>
			</rt_info>
			<input>
				<port id="0" precision="FP32">
					<dim>-1</dim>
					<dim>32</dim>
					<dim>3</dim>
					<dim>3</dim>
				</port>
				<port id="1" precision="FP32">
					<dim>32</dim>
					<dim>1</dim>
					<dim>1</dim>
					<dim>3</dim>
					<dim>3</dim>
				</port>
			</input>
			<output>
				<port id="2" precision="FP32" names="426">
					<dim>-1</dim>
					<dim>32</dim>
					<dim>3</dim>
					<dim>3</dim>
				</port>
			</output>
		</layer>
		<layer id="218" name="backbone2a.5.convs.1.weight" type="Const" version="opset1">
			<data element_type="f32" shape="32, 32, 1, 1" offset="785296" size="4096"/>
			<rt_info>
				<attribute name="fused_names" version="0" value="backbone2a.5.convs.1.weight"/>
			</rt_info>
			<output>
				<port id="0" precision="FP32" names="backbone2a.5.convs.1.weight">
					<dim>32</dim>
					<dim>32</dim>
					<dim>1</dim>
					<dim>1</dim>
				</port>
			</output>
		</layer>
		<layer id="219" name="Convolution_4174" type="Convolution" version="opset1">
			<data strides="1, 1" dilations="1, 1" pads_begin="0, 0" pads_end="0, 0" auto_pad="explicit"/>
			<rt_info>
				<attribute name="fused_names" version="0" value="Convolution_4174"/>
			</rt_info>
			<input>
				<port id="0" precision="FP32">
					<dim>-1</dim>
					<dim>32</dim>
					<dim>3</dim>
					<dim>3</dim>
				</port>
				<port id="1" precision="FP32">
					<dim>32</dim>
					<dim>32</dim>
					<dim>1</dim>
					<dim>1</dim>
				</port>
			</input>
			<output>
				<port id="2" precision="FP32">
					<dim>-1</dim>
					<dim>32</dim>
					<dim>3</dim>
					<dim>3</dim>
				</port>
			</output>
		</layer>
		<layer id="220" name="Reshape_4194" type="Const" version="opset1">
			<data element_type="f32" shape="1, 32, 1, 1" offset="789392" size="128"/>
			<output>
				<port id="0" precision="FP32">
					<dim>1</dim>
					<dim>32</dim>
					<dim>1</dim>
					<dim>1</dim>
				</port>
			</output>
		</layer>
		<layer id="221" name="427" type="Add" version="opset1">
			<data auto_broadcast="numpy"/>
			<rt_info>
				<attribute name="fused_names" version="0" value="427, Concat_4193, Reshape_4194"/>
			</rt_info>
			<input>
				<port id="0" precision="FP32">
					<dim>-1</dim>
					<dim>32</dim>
					<dim>3</dim>
					<dim>3</dim>
				</port>
				<port id="1" precision="FP32">
					<dim>1</dim>
					<dim>32</dim>
					<dim>1</dim>
					<dim>1</dim>
				</port>
			</input>
			<output>
				<port id="2" precision="FP32" names="427">
					<dim>-1</dim>
					<dim>32</dim>
					<dim>3</dim>
					<dim>3</dim>
				</port>
			</output>
		</layer>
		<layer id="222" name="428" type="Add" version="opset1">
			<data auto_broadcast="numpy"/>
			<rt_info>
				<attribute name="fused_names" version="0" value="428"/>
			</rt_info>
			<input>
				<port id="0" precision="FP32">
					<dim>-1</dim>
					<dim>32</dim>
					<dim>3</dim>
					<dim>3</dim>
				</port>
				<port id="1" precision="FP32">
					<dim>-1</dim>
					<dim>32</dim>
					<dim>3</dim>
					<dim>3</dim>
				</port>
			</input>
			<output>
				<port id="2" precision="FP32" names="428">
					<dim>-1</dim>
					<dim>32</dim>
					<dim>3</dim>
					<dim>3</dim>
				</port>
			</output>
		</layer>
		<layer id="223" name="542" type="Const" version="opset1">
			<data element_type="f32" shape="32, 1, 1" offset="789520" size="128"/>
			<rt_info>
				<attribute name="fused_names" version="0" value="542"/>
			</rt_info>
			<output>
				<port id="0" precision="FP32" names="542">
					<dim>32</dim>
					<dim>1</dim>
					<dim>1</dim>
				</port>
			</output>
		</layer>
		<layer id="224" name="430" type="PReLU" version="opset1">
			<rt_info>
				<attribute name="fused_names" version="0" value="430"/>
			</rt_info>
			<input>
				<port id="0" precision="FP32">
					<dim>-1</dim>
					<dim>32</dim>
					<dim>3</dim>
					<dim>3</dim>
				</port>
				<port id="1" precision="FP32">
					<dim>32</dim>
					<dim>1</dim>
					<dim>1</dim>
				</port>
			</input>
			<output>
				<port id="2" precision="FP32" names="430">
					<dim>-1</dim>
					<dim>32</dim>
					<dim>3</dim>
					<dim>3</dim>
				</port>
			</output>
		</layer>
		<layer id="225" name="backbone2a.6.weight" type="Const" version="opset1">
			<data element_type="f32" shape="1404, 32, 3, 3" offset="789648" size="1617408"/>
			<rt_info>
				<attribute name="fused_names" version="0" value="backbone2a.6.weight"/>
			</rt_info>
			<output>
				<port id="0" precision="FP32" names="backbone2a.6.weight">
					<dim>1404</dim>
					<dim>32</dim>
					<dim>3</dim>
					<dim>3</dim>
				</port>
			</output>
		</layer>
		<layer id="226" name="Convolution_4224" type="Convolution" version="opset1">
			<data strides="1, 1" dilations="1, 1" pads_begin="0, 0" pads_end="0, 0" auto_pad="explicit"/>
			<rt_info>
				<attribute name="fused_names" version="0" value="Convolution_4224"/>
			</rt_info>
			<input>
				<port id="0" precision="FP32">
					<dim>-1</dim>
					<dim>32</dim>
					<dim>3</dim>
					<dim>3</dim>
				</port>
				<port id="1" precision="FP32">
					<dim>1404</dim>
					<dim>32</dim>
					<dim>3</dim>
					<dim>3</dim>
				</port>
			</input>
			<output>
				<port id="2" precision="FP32">
					<dim>-1</dim>
					<dim>1404</dim>
					<dim>1</dim>
					<dim>1</dim>
				</port>
			</output>
		</layer>
		<layer id="227" name="Reshape_4244" type="Const" version="opset1">
			<data element_type="f32" shape="1, 1404, 1, 1" offset="2407056" size="5616"/>
			<output>
				<port id="0" precision="FP32">
					<dim>1</dim>
					<dim>1404</dim>
					<dim>1</dim>
					<dim>1</dim>
				</port>
			</output>
		</layer>
		<layer id="228" name="431" type="Add" version="opset1">
			<data auto_broadcast="numpy"/>
			<rt_info>
				<attribute name="fused_names" version="0" value="431, Concat_4243, Reshape_4244"/>
			</rt_info>
			<input>
				<port id="0" precision="FP32">
					<dim>-1</dim>
					<dim>1404</dim>
					<dim>1</dim>
					<dim>1</dim>
				</port>
				<port id="1" precision="FP32">
					<dim>1</dim>
					<dim>1404</dim>
					<dim>1</dim>
					<dim>1</dim>
				</port>
			</input>
			<output>
				<port id="2" precision="FP32" names="431">
					<dim>-1</dim>
					<dim>1404</dim>
					<dim>1</dim>
					<dim>1</dim>
				</port>
			</output>
		</layer>
		<layer id="229" name="432" type="Const" version="opset1">
			<data element_type="i64" shape="3" offset="2412672" size="24"/>
			<rt_info>
				<attribute name="fused_names" version="0" value="432"/>
			</rt_info>
			<output>
				<port id="0" precision="I64" names="432">
					<dim>3</dim>
				</port>
			</output>
		</layer>
		<layer id="230" name="433" type="Reshape" version="opset1">
			<data special_zero="true"/>
			<rt_info>
				<attribute name="fused_names" version="0" value="433"/>
			</rt_info>
			<input>
				<port id="0" precision="FP32">
					<dim>-1</dim>
					<dim>1404</dim>
					<dim>1</dim>
					<dim>1</dim>
				</port>
				<port id="1" precision="I64">
					<dim>3</dim>
				</port>
			</input>
			<output>
				<port id="2" precision="FP32" names="433">
					<dim>-1</dim>
					<dim>468</dim>
					<dim>3</dim>
				</port>
			</output>
		</layer>
		<layer id="231" name="Constant_9820" type="Const" version="opset1">
			<data element_type="f32" shape="1, 1, 1" offset="2412696" size="4"/>
			<output>
				<port id="0" precision="FP32">
					<dim>1</dim>
					<dim>1</dim>
					<dim>1</dim>
				</port>
			</output>
		</layer>
		<layer id="232" name="output" type="Multiply" version="opset1">
			<data auto_broadcast="numpy"/>
			<rt_info>
				<attribute name="fused_names" version="0" value="434, output"/>
			</rt_info>
			<input>
				<port id="0" precision="FP32">
					<dim>-1</dim>
					<dim>468</dim>
					<dim>3</dim>
				</port>
				<port id="1" precision="FP32">
					<dim>1</dim>
					<dim>1</dim>
					<dim>1</dim>
				</port>
			</input>
			<output>
				<port id="2" precision="FP32" names="output">
					<dim>-1</dim>
					<dim>468</dim>
					<dim>3</dim>
				</port>
			</output>
		</layer>
		<layer id="233" name="output/sink_port_0" type="Result" version="opset1">
			<rt_info>
				<attribute name="fused_names" version="0" value="output/sink_port_0"/>
			</rt_info>
			<input>
				<port id="0" precision="FP32">
					<dim>-1</dim>
					<dim>468</dim>
					<dim>3</dim>
				</port>
			</input>
		</layer>
		<layer id="181" name="477/sink_port_0" type="Result" version="opset1">
			<rt_info>
				<attribute name="fused_names" version="0" value="477/sink_port_0"/>
			</rt_info>
			<input>
				<port id="0" precision="FP32">
					<dim>-1</dim>
				</port>
			</input>
		</layer>
	</layers>
	<edges>
		<edge from-layer="0" from-port="0" to-layer="2" to-port="0"/>
		<edge from-layer="1" from-port="0" to-layer="2" to-port="1"/>
		<edge from-layer="2" from-port="2" to-layer="4" to-port="0"/>
		<edge from-layer="3" from-port="0" to-layer="4" to-port="1"/>
		<edge from-layer="4" from-port="2" to-layer="6" to-port="0"/>
		<edge from-layer="5" from-port="0" to-layer="6" to-port="1"/>
		<edge from-layer="6" from-port="2" to-layer="8" to-port="0"/>
		<edge from-layer="6" from-port="2" to-layer="13" to-port="1"/>
		<edge from-layer="7" from-port="0" to-layer="8" to-port="1"/>
		<edge from-layer="8" from-port="2" to-layer="10" to-port="0"/>
		<edge from-layer="9" from-port="0" to-layer="10" to-port="1"/>
		<edge from-layer="10" from-port="2" to-layer="12" to-port="0"/>
		<edge from-layer="11" from-port="0" to-layer="12" to-port="1"/>
		<edge from-layer="12" from-port="2" to-layer="13" to-port="0"/>
		<edge from-layer="13" from-port="2" to-layer="15" to-port="0"/>
		<edge from-layer="14" from-port="0" to-layer="15" to-port="1"/>
		<edge from-layer="15" from-port="2" to-layer="17" to-port="0"/>
		<edge from-layer="15" from-port="2" to-layer="22" to-port="1"/>
		<edge from-layer="16" from-port="0" to-layer="17" to-port="1"/>
		<edge from-layer="17" from-port="2" to-layer="19" to-port="0"/>
		<edge from-layer="18" from-port="0" to-layer="19" to-port="1"/>
		<edge from-layer="19" from-port="2" to-layer="21" to-port="0"/>
		<edge from-layer="20" from-port="0" to-layer="21" to-port="1"/>
		<edge from-layer="21" from-port="2" to-layer="22" to-port="0"/>
		<edge from-layer="22" from-port="2" to-layer="24" to-port="0"/>
		<edge from-layer="23" from-port="0" to-layer="24" to-port="1"/>
		<edge from-layer="24" from-port="2" to-layer="26" to-port="0"/>
		<edge from-layer="24" from-port="2" to-layer="31" to-port="0"/>
		<edge from-layer="25" from-port="0" to-layer="26" to-port="1"/>
		<edge from-layer="26" from-port="2" to-layer="28" to-port="0"/>
		<edge from-layer="27" from-port="0" to-layer="28" to-port="1"/>
		<edge from-layer="28" from-port="2" to-layer="30" to-port="0"/>
		<edge from-layer="29" from-port="0" to-layer="30" to-port="1"/>
		<edge from-layer="30" from-port="2" to-layer="36" to-port="0"/>
		<edge from-layer="31" from-port="1" to-layer="35" to-port="0"/>
		<edge from-layer="32" from-port="0" to-layer="35" to-port="1"/>
		<edge from-layer="33" from-port="0" to-layer="35" to-port="2"/>
		<edge from-layer="34" from-port="0" to-layer="35" to-port="3"/>
		<edge from-layer="35" from-port="4" to-layer="36" to-port="1"/>
		<edge from-layer="36" from-port="2" to-layer="38" to-port="0"/>
		<edge from-layer="37" from-port="0" to-layer="38" to-port="1"/>
		<edge from-layer="38" from-port="2" to-layer="40" to-port="0"/>
		<edge from-layer="38" from-port="2" to-layer="45" to-port="1"/>
		<edge from-layer="39" from-port="0" to-layer="40" to-port="1"/>
		<edge from-layer="40" from-port="2" to-layer="42" to-port="0"/>
		<edge from-layer="41" from-port="0" to-layer="42" to-port="1"/>
		<edge from-layer="42" from-port="2" to-layer="44" to-port="0"/>
		<edge from-layer="43" from-port="0" to-layer="44" to-port="1"/>
		<edge from-layer="44" from-port="2" to-layer="45" to-port="0"/>
		<edge from-layer="45" from-port="2" to-layer="47" to-port="0"/>
		<edge from-layer="46" from-port="0" to-layer="47" to-port="1"/>
		<edge from-layer="47" from-port="2" to-layer="49" to-port="0"/>
		<edge from-layer="47" from-port="2" to-layer="54" to-port="1"/>
		<edge from-layer="48" from-port="0" to-layer="49" to-port="1"/>
		<edge from-layer="49" from-port="2" to-layer="51" to-port="0"/>
		<edge from-layer="50" from-port="0" to-layer="51" to-port="1"/>
		<edge from-layer="51" from-port="2" to-layer="53" to-port="0"/>
		<edge from-layer="52" from-port="0" to-layer="53" to-port="1"/>
		<edge from-layer="53" from-port="2" to-layer="54" to-port="0"/>
		<edge from-layer="54" from-port="2" to-layer="56" to-port="0"/>
		<edge from-layer="55" from-port="0" to-layer="56" to-port="1"/>
		<edge from-layer="56" from-port="2" to-layer="58" to-port="0"/>
		<edge from-layer="56" from-port="2" to-layer="63" to-port="0"/>
		<edge from-layer="57" from-port="0" to-layer="58" to-port="1"/>
		<edge from-layer="58" from-port="2" to-layer="60" to-port="0"/>
		<edge from-layer="59" from-port="0" to-layer="60" to-port="1"/>
		<edge from-layer="60" from-port="2" to-layer="62" to-port="0"/>
		<edge from-layer="61" from-port="0" to-layer="62" to-port="1"/>
		<edge from-layer="62" from-port="2" to-layer="68" to-port="0"/>
		<edge from-layer="63" from-port="1" to-layer="67" to-port="0"/>
		<edge from-layer="64" from-port="0" to-layer="67" to-port="1"/>
		<edge from-layer="65" from-port="0" to-layer="67" to-port="2"/>
		<edge from-layer="66" from-port="0" to-layer="67" to-port="3"/>
		<edge from-layer="67" from-port="4" to-layer="68" to-port="1"/>
		<edge from-layer="68" from-port="2" to-layer="70" to-port="0"/>
		<edge from-layer="69" from-port="0" to-layer="70" to-port="1"/>
		<edge from-layer="70" from-port="2" to-layer="72" to-port="0"/>
		<edge from-layer="70" from-port="2" to-layer="77" to-port="1"/>
		<edge from-layer="71" from-port="0" to-layer="72" to-port="1"/>
		<edge from-layer="72" from-port="2" to-layer="74" to-port="0"/>
		<edge from-layer="73" from-port="0" to-layer="74" to-port="1"/>
		<edge from-layer="74" from-port="2" to-layer="76" to-port="0"/>
		<edge from-layer="75" from-port="0" to-layer="76" to-port="1"/>
		<edge from-layer="76" from-port="2" to-layer="77" to-port="0"/>
		<edge from-layer="77" from-port="2" to-layer="79" to-port="0"/>
		<edge from-layer="78" from-port="0" to-layer="79" to-port="1"/>
		<edge from-layer="79" from-port="2" to-layer="81" to-port="0"/>
		<edge from-layer="79" from-port="2" to-layer="86" to-port="1"/>
		<edge from-layer="80" from-port="0" to-layer="81" to-port="1"/>
		<edge from-layer="81" from-port="2" to-layer="83" to-port="0"/>
		<edge from-layer="82" from-port="0" to-layer="83" to-port="1"/>
		<edge from-layer="83" from-port="2" to-layer="85" to-port="0"/>
		<edge from-layer="84" from-port="0" to-layer="85" to-port="1"/>
		<edge from-layer="85" from-port="2" to-layer="86" to-port="0"/>
		<edge from-layer="86" from-port="2" to-layer="88" to-port="0"/>
		<edge from-layer="87" from-port="0" to-layer="88" to-port="1"/>
		<edge from-layer="88" from-port="2" to-layer="90" to-port="0"/>
		<edge from-layer="88" from-port="2" to-layer="95" to-port="0"/>
		<edge from-layer="89" from-port="0" to-layer="90" to-port="1"/>
		<edge from-layer="90" from-port="2" to-layer="92" to-port="0"/>
		<edge from-layer="91" from-port="0" to-layer="92" to-port="1"/>
		<edge from-layer="92" from-port="2" to-layer="94" to-port="0"/>
		<edge from-layer="93" from-port="0" to-layer="94" to-port="1"/>
		<edge from-layer="94" from-port="2" to-layer="100" to-port="0"/>
		<edge from-layer="95" from-port="1" to-layer="99" to-port="0"/>
		<edge from-layer="96" from-port="0" to-layer="99" to-port="1"/>
		<edge from-layer="97" from-port="0" to-layer="99" to-port="2"/>
		<edge from-layer="98" from-port="0" to-layer="99" to-port="3"/>
		<edge from-layer="99" from-port="4" to-layer="100" to-port="1"/>
		<edge from-layer="100" from-port="2" to-layer="102" to-port="0"/>
		<edge from-layer="101" from-port="0" to-layer="102" to-port="1"/>
		<edge from-layer="102" from-port="2" to-layer="104" to-port="0"/>
		<edge from-layer="102" from-port="2" to-layer="109" to-port="1"/>
		<edge from-layer="103" from-port="0" to-layer="104" to-port="1"/>
		<edge from-layer="104" from-port="2" to-layer="106" to-port="0"/>
		<edge from-layer="105" from-port="0" to-layer="106" to-port="1"/>
		<edge from-layer="106" from-port="2" to-layer="108" to-port="0"/>
		<edge from-layer="107" from-port="0" to-layer="108" to-port="1"/>
		<edge from-layer="108" from-port="2" to-layer="109" to-port="0"/>
		<edge from-layer="109" from-port="2" to-layer="111" to-port="0"/>
		<edge from-layer="110" from-port="0" to-layer="111" to-port="1"/>
		<edge from-layer="111" from-port="2" to-layer="113" to-port="0"/>
		<edge from-layer="111" from-port="2" to-layer="118" to-port="1"/>
		<edge from-layer="112" from-port="0" to-layer="113" to-port="1"/>
		<edge from-layer="113" from-port="2" to-layer="115" to-port="0"/>
		<edge from-layer="114" from-port="0" to-layer="115" to-port="1"/>
		<edge from-layer="115" from-port="2" to-layer="117" to-port="0"/>
		<edge from-layer="116" from-port="0" to-layer="117" to-port="1"/>
		<edge from-layer="117" from-port="2" to-layer="118" to-port="0"/>
		<edge from-layer="118" from-port="2" to-layer="120" to-port="0"/>
		<edge from-layer="119" from-port="0" to-layer="120" to-port="1"/>
		<edge from-layer="120" from-port="2" to-layer="122" to-port="0"/>
		<edge from-layer="120" from-port="2" to-layer="127" to-port="0"/>
		<edge from-layer="121" from-port="0" to-layer="122" to-port="1"/>
		<edge from-layer="122" from-port="2" to-layer="124" to-port="0"/>
		<edge from-layer="123" from-port="0" to-layer="124" to-port="1"/>
		<edge from-layer="124" from-port="2" to-layer="126" to-port="0"/>
		<edge from-layer="125" from-port="0" to-layer="126" to-port="1"/>
		<edge from-layer="126" from-port="2" to-layer="128" to-port="0"/>
		<edge from-layer="127" from-port="1" to-layer="128" to-port="1"/>
		<edge from-layer="128" from-port="2" to-layer="130" to-port="0"/>
		<edge from-layer="129" from-port="0" to-layer="130" to-port="1"/>
		<edge from-layer="130" from-port="2" to-layer="132" to-port="0"/>
		<edge from-layer="130" from-port="2" to-layer="137" to-port="1"/>
		<edge from-layer="131" from-port="0" to-layer="132" to-port="1"/>
		<edge from-layer="132" from-port="2" to-layer="134" to-port="0"/>
		<edge from-layer="133" from-port="0" to-layer="134" to-port="1"/>
		<edge from-layer="134" from-port="2" to-layer="136" to-port="0"/>
		<edge from-layer="135" from-port="0" to-layer="136" to-port="1"/>
		<edge from-layer="136" from-port="2" to-layer="137" to-port="0"/>
		<edge from-layer="137" from-port="2" to-layer="139" to-port="0"/>
		<edge from-layer="138" from-port="0" to-layer="139" to-port="1"/>
		<edge from-layer="139" from-port="2" to-layer="141" to-port="0"/>
		<edge from-layer="139" from-port="2" to-layer="146" to-port="1"/>
		<edge from-layer="140" from-port="0" to-layer="141" to-port="1"/>
		<edge from-layer="141" from-port="2" to-layer="143" to-port="0"/>
		<edge from-layer="142" from-port="0" to-layer="143" to-port="1"/>
		<edge from-layer="143" from-port="2" to-layer="145" to-port="0"/>
		<edge from-layer="144" from-port="0" to-layer="145" to-port="1"/>
		<edge from-layer="145" from-port="2" to-layer="146" to-port="0"/>
		<edge from-layer="146" from-port="2" to-layer="148" to-port="0"/>
		<edge from-layer="147" from-port="0" to-layer="148" to-port="1"/>
		<edge from-layer="148" from-port="2" to-layer="150" to-port="0"/>
		<edge from-layer="148" from-port="2" to-layer="183" to-port="0"/>
		<edge from-layer="148" from-port="2" to-layer="188" to-port="0"/>
		<edge from-layer="148" from-port="2" to-layer="155" to-port="0"/>
		<edge from-layer="149" from-port="0" to-layer="150" to-port="1"/>
		<edge from-layer="150" from-port="2" to-layer="152" to-port="0"/>
		<edge from-layer="151" from-port="0" to-layer="152" to-port="1"/>
		<edge from-layer="152" from-port="2" to-layer="154" to-port="0"/>
		<edge from-layer="153" from-port="0" to-layer="154" to-port="1"/>
		<edge from-layer="154" from-port="2" to-layer="156" to-port="0"/>
		<edge from-layer="155" from-port="1" to-layer="156" to-port="1"/>
		<edge from-layer="156" from-port="2" to-layer="158" to-port="0"/>
		<edge from-layer="157" from-port="0" to-layer="158" to-port="1"/>
		<edge from-layer="158" from-port="2" to-layer="160" to-port="0"/>
		<edge from-layer="159" from-port="0" to-layer="160" to-port="1"/>
		<edge from-layer="160" from-port="2" to-layer="162" to-port="0"/>
		<edge from-layer="161" from-port="0" to-layer="162" to-port="1"/>
		<edge from-layer="162" from-port="2" to-layer="164" to-port="0"/>
		<edge from-layer="163" from-port="0" to-layer="164" to-port="1"/>
		<edge from-layer="164" from-port="2" to-layer="166" to-port="0"/>
		<edge from-layer="164" from-port="2" to-layer="171" to-port="1"/>
		<edge from-layer="165" from-port="0" to-layer="166" to-port="1"/>
		<edge from-layer="166" from-port="2" to-layer="168" to-port="0"/>
		<edge from-layer="167" from-port="0" to-layer="168" to-port="1"/>
		<edge from-layer="168" from-port="2" to-layer="170" to-port="0"/>
		<edge from-layer="169" from-port="0" to-layer="170" to-port="1"/>
		<edge from-layer="170" from-port="2" to-layer="171" to-port="0"/>
		<edge from-layer="171" from-port="2" to-layer="173" to-port="0"/>
		<edge from-layer="172" from-port="0" to-layer="173" to-port="1"/>
		<edge from-layer="173" from-port="2" to-layer="175" to-port="0"/>
		<edge from-layer="174" from-port="0" to-layer="175" to-port="1"/>
		<edge from-layer="175" from-port="2" to-layer="177" to-port="0"/>
		<edge from-layer="176" from-port="0" to-layer="177" to-port="1"/>
		<edge from-layer="177" from-port="2" to-layer="178" to-port="0"/>
		<edge from-layer="178" from-port="1" to-layer="180" to-port="0"/>
		<edge from-layer="179" from-port="0" to-layer="180" to-port="1"/>
		<edge from-layer="180" from-port="2" to-layer="181" to-port="0"/>
		<edge from-layer="182" from-port="0" to-layer="183" to-port="1"/>
		<edge from-layer="183" from-port="2" to-layer="185" to-port="0"/>
		<edge from-layer="184" from-port="0" to-layer="185" to-port="1"/>
		<edge from-layer="185" from-port="2" to-layer="187" to-port="0"/>
		<edge from-layer="186" from-port="0" to-layer="187" to-port="1"/>
		<edge from-layer="187" from-port="2" to-layer="189" to-port="0"/>
		<edge from-layer="188" from-port="1" to-layer="189" to-port="1"/>
		<edge from-layer="189" from-port="2" to-layer="191" to-port="0"/>
		<edge from-layer="190" from-port="0" to-layer="191" to-port="1"/>
		<edge from-layer="191" from-port="2" to-layer="193" to-port="0"/>
		<edge from-layer="191" from-port="2" to-layer="198" to-port="1"/>
		<edge from-layer="192" from-port="0" to-layer="193" to-port="1"/>
		<edge from-layer="193" from-port="2" to-layer="195" to-port="0"/>
		<edge from-layer="194" from-port="0" to-layer="195" to-port="1"/>
		<edge from-layer="195" from-port="2" to-layer="197" to-port="0"/>
		<edge from-layer="196" from-port="0" to-layer="197" to-port="1"/>
		<edge from-layer="197" from-port="2" to-layer="198" to-port="0"/>
		<edge from-layer="198" from-port="2" to-layer="200" to-port="0"/>
		<edge from-layer="199" from-port="0" to-layer="200" to-port="1"/>
		<edge from-layer="200" from-port="2" to-layer="202" to-port="0"/>
		<edge from-layer="200" from-port="2" to-layer="207" to-port="1"/>
		<edge from-layer="201" from-port="0" to-layer="202" to-port="1"/>
		<edge from-layer="202" from-port="2" to-layer="204" to-port="0"/>
		<edge from-layer="203" from-port="0" to-layer="204" to-port="1"/>
		<edge from-layer="204" from-port="2" to-layer="206" to-port="0"/>
		<edge from-layer="205" from-port="0" to-layer="206" to-port="1"/>
		<edge from-layer="206" from-port="2" to-layer="207" to-port="0"/>
		<edge from-layer="207" from-port="2" to-layer="209" to-port="0"/>
		<edge from-layer="208" from-port="0" to-layer="209" to-port="1"/>
		<edge from-layer="209" from-port="2" to-layer="211" to-port="0"/>
		<edge from-layer="210" from-port="0" to-layer="211" to-port="1"/>
		<edge from-layer="211" from-port="2" to-layer="213" to-port="0"/>
		<edge from-layer="212" from-port="0" to-layer="213" to-port="1"/>
		<edge from-layer="213" from-port="2" to-layer="215" to-port="0"/>
		<edge from-layer="214" from-port="0" to-layer="215" to-port="1"/>
		<edge from-layer="215" from-port="2" to-layer="217" to-port="0"/>
		<edge from-layer="215" from-port="2" to-layer="222" to-port="1"/>
		<edge from-layer="216" from-port="0" to-layer="217" to-port="1"/>
		<edge from-layer="217" from-port="2" to-layer="219" to-port="0"/>
		<edge from-layer="218" from-port="0" to-layer="219" to-port="1"/>
		<edge from-layer="219" from-port="2" to-layer="221" to-port="0"/>
		<edge from-layer="220" from-port="0" to-layer="221" to-port="1"/>
		<edge from-layer="221" from-port="2" to-layer="222" to-port="0"/>
		<edge from-layer="222" from-port="2" to-layer="224" to-port="0"/>
		<edge from-layer="223" from-port="0" to-layer="224" to-port="1"/>
		<edge from-layer="224" from-port="2" to-layer="226" to-port="0"/>
		<edge from-layer="225" from-port="0" to-layer="226" to-port="1"/>
		<edge from-layer="226" from-port="2" to-layer="228" to-port="0"/>
		<edge from-layer="227" from-port="0" to-layer="228" to-port="1"/>
		<edge from-layer="228" from-port="2" to-layer="230" to-port="0"/>
		<edge from-layer="229" from-port="0" to-layer="230" to-port="1"/>
		<edge from-layer="230" from-port="2" to-layer="232" to-port="0"/>
		<edge from-layer="231" from-port="0" to-layer="232" to-port="1"/>
		<edge from-layer="232" from-port="2" to-layer="233" to-port="0"/>
	</edges>
	<meta_data>
		<MO_version value="2022.1.0-7019-cdb9bec7210-releases/2022/1"/>
		<Runtime_version value="2022.1.0-7019-cdb9bec7210-releases/2022/1"/>
		<legacy_path value="False"/>
		<cli_parameters>
			<caffe_parser_path value="DIR"/>
			<compress_fp16 value="False"/>
			<data_type value="float"/>
			<disable_nhwc_to_nchw value="False"/>
			<disable_omitting_optional value="False"/>
			<disable_resnet_optimization value="False"/>
			<disable_weights_compression value="False"/>
			<enable_concat_optimization value="False"/>
			<enable_flattening_nested_params value="False"/>
			<enable_ssd_gluoncv value="False"/>
			<extensions value="DIR"/>
			<framework value="onnx"/>
			<freeze_placeholder_with_value value="{}"/>
			<input_model value="DIR/face_mesh.onnx"/>
			<input_model_is_text value="False"/>
			<k value="DIR/CustomLayersMapping.xml"/>
			<layout value="()"/>
			<layout_values value="{}"/>
			<legacy_mxnet_model value="False"/>
			<log_level value="ERROR"/>
			<mean_scale_values value="{}"/>
			<mean_values value="()"/>
			<model_name value="face_mesh"/>
			<output_dir value="DIR"/>
			<placeholder_data_types value="{}"/>
			<progress value="False"/>
			<remove_memory value="False"/>
			<remove_output_softmax value="False"/>
			<reverse_input_channels value="False"/>
			<save_params_from_nd value="False"/>
			<scale_values value="()"/>
			<silent value="False"/>
			<source_layout value="()"/>
			<static_shape value="False"/>
			<stream_output value="False"/>
			<target_layout value="()"/>
			<transform value=""/>
			<use_legacy_frontend value="False"/>
			<use_new_frontend value="False"/>
			<unset unset_cli_parameters="batch, counts, disable_fusing, finegrain_fusing, input, input_checkpoint, input_meta_graph, input_proto, input_shape, input_symbol, mean_file, mean_file_offsets, nd_prefix_name, output, placeholder_shapes, pretrained_model_name, saved_model_dir, saved_model_tags, scale, tensorboard_logdir, tensorflow_custom_layer_libraries, tensorflow_custom_operations_config_update, tensorflow_object_detection_api_pipeline_config, tensorflow_use_custom_operations_config, transformations_config"/>
		</cli_parameters>
	</meta_data>
</net>
